src/python/saved_models/model_S_MLP_resnet18_15epochs_Cropped2R.pt (torch, 681495 bytes, 6 tensors)

fc1.weight f4 [256, 512]
0.0024364295 0.053828567 -0.0028311599 -0.00070930424 -0.019991305 -0.003594052 0.006622356 0.01713525
0.03298162 0.004031882 -0.009073163 -0.014898558 0.024297133 -0.0007432665 0.03355868 0.023739772
-0.034452017 0.03255116 0.037864454 -0.038294185 0.0123700835 -0.009696968 0.03410425 0.00034097917
0.022337794 0.042400427 0.03408309 -0.015770731 0.03474532 -0.0007531025 0.006866194 -0.03069048
0.024571486 -0.032929767 -0.040103395 0.010316683 0.020539753 -0.033658113 -0.053098455 -0.0058516255
0.039996583 0.021093734 0.028765326 -0.03777527 -0.035433624 -0.020025378 0.010166349 -0.0010214039
-0.013329055 0.030546498 0.03069842 0.01646057 -0.008587034 -0.017222133 0.061586168 -0.0011607016
0.0154114645 -0.032667655 0.029453948 -0.03841495 0.02717567 0.02925049 -0.029492533 0.042840786
-0.041082315 0.02092127 -0.046999387 0.0037563932 0.0022364585 -0.031223796 0.024681384 -0.02903854
0.030301478 0.03653941 0.02629746 -0.017301915 -0.04202659 -0.009688595 0.011979615 -0.036917865
-0.009304373 -0.04894535 -0.04270943 -0.028432054 -0.03368844 0.03921374 -0.004250604 0.034488156
-0.010303962 0.036610775 0.0054676956 0.02573081 -0.0046925577 -0.008391993 0.028723974 -0.054542813
0.05962533 0.019869307 0.029262848 -0.023555137 -0.039678324 0.024244381 -0.013761669 -0.01659216
-0.03625002 -0.02298691 0.04375672 0.031470943 0.016898712 -0.011704115 -0.012694765 0.014244709
0.03908301 0.054151453 -0.0029348638 0.021468215 -0.0094597265 -0.014313315 -0.011459901 0.031049069
0.046882574 0.03365662 -0.041269816 -0.022107484 0.0040990594 0.02351906 -0.0338924 -0.0033583944
0.039212838 0.017049106 0.015661862 0.00053697085 0.04624999 -0.04378889 -0.031235736 0.008604564
-0.0151709 -0.037725136 0.052948967 -0.025093127 0.010838887 0.0035302688 -0.016365966 0.020270586
0.005434471 -0.03225911 0.0037407756 0.0098120095 -0.02425562 0.0046214615 -0.012910902 0.010728614
-0.021360232 -0.045476936 -0.03674806 0.027261525 0.028827775 0.030142004 0.03607077 0.04137372
0.027145151 -0.009499656 -0.029452542 -0.014347718 -0.055087034 0.04214755 -0.03357131 0.028920934
-0.007815509 0.05842403 0.046921533 -0.033809807 -0.031963386 0.014753823 0.0016528018 -0.018328926
0.0062452336 -0.03608058 -0.018190866 -0.01756864 0.0087435 0.049306028 -0.024226485 0.0011636297
0.05345679 -0.025112018 0.015798574 -0.023790514 0.011885603 0.011120047 0.025330272 0.027143361
-0.0012139209 -0.02270487 0.0035391033 -0.009012194 0.024771987 -0.011879475 0.059005413 -0.03988496
0.061372597 -0.020931832 -0.037527874 0.047613576 0.026101325 0.019637872 0.04500693 0.031022284
-0.005432846 -0.006132519 -0.023770127 0.016281229 0.04509031 0.035685938 -0.03510911 0.018861042
-0.01768354 0.07311479 -0.015053516 -0.025008576 -0.0072955783 0.045713868 0.017303037 0.009405214
-0.036376003 0.038122553 0.04118541 0.011956916 0.041417625 -0.014069198 -0.020030294 -0.04204059
0.05159693 0.025952047 0.025844496 -0.010516317 -0.046376355 -0.012001355 0.029011587 -0.0013645971
-0.010298626 0.0028365953 -0.002079215 -0.05827674 0.022214826 0.013506744 0.0010197468 -0.004775488
-0.036606144 -0.027055617 0.007057253 0.037990868 -0.0012491747 -0.02769205 0.010448156 -0.017331824
00000000: 81ac 1f3b 587b 5c3d fb8a 39bb 9af0 39ba
00000010: cec4 a3bc 308a 6bbb 5900 d93b 395f 8c3c
00000020: bc17 073d e11d 843b 9ba7 14bc 1519 74bc
00000030: c80a c73c c5d7 42ba d474 093d e979 c23c
00000040: 8f1d 0dbd 5d54 053d c217 1b3d 5dda 1cbd
00000050: e4ab 4a3c 08e0 1ebc e6b0 0b3d 73c5 b239
00000060: c0fd b63c 12ac 2d3d b69a 0b3d 9f31 81bc
00000070: 1c51 0e3d da6b 45ba cffd e03b 9a6a fbbc
00000080: 244a c93c 5de1 06bd 7543 24bd 4e07 293c
00000090: fc42 a83c 17dd 09bd c47d 59bd febe bfbb
000000a0: 75d3 233d c4cc ac3c 43a5 eb3c 3eba 1abd
000000b0: d922 11bd 430c a4bc c290 263c a1e0 85ba
000000c0: 1c62 5abc a63c fa3c 417b fb3c 51d8 863c
000000d0: a2b0 0cbc 6e15 8dbc c741 7c3d af22 98ba
000000e0: 5e80 7c3c 85ce 05bd 6849 f13c ff58 1dbd
000000f0: 839f de3c b99e ef3c 539a f1bc d279 2f3d
00000100: ee45 28bd 1563 ab3c 6e82 40bd d22d 763b
00000110: 8c91 123b 0cc9 ffbc 9d30 ca3c 3be2 edbc
00000120: ce3a f83c 59aa 153d c56d d73c bfbc 8dbc
00000130: 1324 2cbd eabc 1ebc 2646 443c 3037 17bd
00000140: 5e71 18bc eb7a 48bd 15f0 2ebd 57ea e8bc
00000150: e4fc 09bd 969e 203d a748 8bbb 7443 0d3d
00000160: f3d1 28bc 2ef5 153d 5b2a b33b 6bc9 d23c
00000170: 07c4 99bb 927e 09bc 8a4e eb3c 4968 5fbd
00000180: b139 743d f5c4 a23c a4b8 ef3c b4f6 c0bc
00000190: bd85 22bd 279c c63c a078 61bc 48ec 87bc
000001a0: e77a 14bd 0b4f bcbc 3f3a 333d ade7 003d
000001b0: 2b6f 8a3c 9ec2 3fbc b4fd 4fbc a462 693c
000001c0: 8215 203d eacd 5d3d d856 40bb 1cde af3c
000001d0: f8fc 1abc 6582 6abc 4fc2 3bbc 9e5a fe3c
000001e0: f107 403d 86db 093d 8a0a 29bd c11a b5bc
000001f0: 6751 863b 0bab c03c c2d2 0abd 8218 5cbb
00000200: a49d 203d 91aa 8b3c 4e4d 803c 81c3 0c3a
00000210: a170 3d3d fb5b 33bd 16e2 ffbc 28fa 0c3c
00000220: 5e8f 78bc ac85 1abd 04e1 583d 1a90 cdbc
00000230: 9695 313c 155c 673b eb11 86bc 800e a63c
00000240: a613 b23b 2122 04bd cd27 753b 8dc2 203c
00000250: b9b3 c6bc a16f 973b 3f88 53bc 12c7 2f3c
00000260: a7fb aebc 0646 3abd 2285 16bd 9053 df3c
00000270: 3a28 ec3c 5dec f63c f2be 133d 7d77 293d
00000280: 825f de3c 72a4 1bbc 7546 f1bc b112 6bbc
00000290: f1a2 61bd e9a2 2c3d 1282 09bd 98eb ec3c
000002a0: 9f0c 00bc 094e 6f3d cb30 403d 277c 0abd
000002b0: 0aec 02bd 05ba 713c d3a2 d83a 8b26 96bc
000002c0: d1a4 cc3b 3bc9 13bd 0305 95bc 1cec 8fbc
000002d0: e640 0f3c 1ef5 493d 9f76 c6bc ef84 983a
000002e0: 82f5 5a3d b8b7 cdbc 036c 813c 53e4 c2bc
000002f0: d5bb 423c dc30 363c 6e81 cf3c c15b de3c
00000300: 6d1c 9fba 90ff b9bc 4df0 673b e2a7 13bc
00000310: 9fee ca3c 21a2 42bc a9af 713d 695e 23bd
00000320: d561 7b3d 3c79 abbc d4b6 19bd 7406 433d
00000330: 72d2 d53c 9adf a03c 3059 383d 7222 fe3c
00000340: 0406 b2bb 4cf3 c8bb 92b9 c2bc 3660 853c
00000350: 9eb0 383d 6b2b 123d 92ce 0fbd 7982 9a3c
00000360: 12dd 90bc 35bd 953d 06a3 76bc c9de ccbc
00000370: bf0f efbb 773e 3b3d 19bf 8d3c 5418 1a3c
00000380: 01ff 14bd 6526 1c3d 08b2 283d f1e6 433c
00000390: 87a5 293d 7e82 66bc 9216 a4bc c132 2cbd
000003a0: 4d57 533d 6399 d43c d6b7 d33c a14c 2cbc
000003b0: 22f5 3dbd 55a1 44bc b5a9 ed3c 48dc b2ba
000003c0: 91bb 28bc 2ce6 393b 7043 08bb 97b3 6ebd
000003d0: defb b53c 644b 5d3c 06a9 853a b27b 9cbb
000003e0: 53f0 15bd bea3 ddbc 8740 e73b 509c 1b3d
000003f0: 59bb a3ba 70da e2bc be2e 2b3c 78fb 8dbc

fc1.bias f4 [256]
0.00046598766 -0.029290302 0.014295041 -0.0400908 0.014987913 0.030544387 -0.012919218 0.031205636
-0.011643664 -0.00063614594 0.005002806 -0.0168694 -0.023464993 0.01340347 0.011894755 -0.03456124
0.017111529 -0.031936657 -0.04219019 0.008280356 -0.038327433 0.009316549 -0.014869469 -0.023649674
0.049933966 0.012584284 0.0014553057 0.018008985 -0.024019148 0.0070567024 0.03184386 0.041909404
-0.0131397825 0.0013570559 0.048600473 0.034579802 0.043850675 -0.036840055 -0.041305933 -0.03982408
-0.0020551507 0.0011815977 0.005312534 0.010913785 -0.0273456 -0.029186 0.027065974 0.027406627
-0.012937426 -0.023537047 -0.04103253 -0.019736756 0.01711303 -0.020654183 -0.018160656 -0.03173743
0.035984524 0.019951994 0.036510114 0.026807211 0.0058645085 0.03261247 0.025548974 0.037891112
-0.028682066 0.022659434 -0.02948235 0.009418299 -0.034186676 -0.03964687 0.004967527 -0.02008999
-0.017485743 -0.032021314 -0.033652563 0.011886062 0.0260404 0.027857248 0.031797945 0.0253015
-0.00010397553 -0.024753045 0.0129030915 0.044442363 0.019184854 -0.022418663 -0.0037651977 0.026969895
0.02410303 0.038937103 0.019958962 0.028722877 0.03184078 -0.030489529 -0.020975789 -0.010795081
0.029591542 -0.028274499 0.027432019 -0.023103874 0.03364402 0.056073625 -8.849764e-06 0.033170715
-0.035309758 -0.017178742 -0.016849283 0.010969088 0.046581853 0.021310171 0.031132102 0.043508824
0.051226653 -0.023699263 -0.014251815 0.03506471 -0.029418508 0.025140233 -0.007454525 -0.042333152
-0.033433016 -0.017610077 -0.013564454 0.0047423756 -0.008408078 0.044119004 0.034340553 0.031874355
0.044186413 -0.04177075 -0.039629523 0.0173718 0.01493956 -0.03963703 0.041602053 0.029203292
0.013485415 -0.03812124 -0.020836478 -0.011258618 0.013449203 0.048150707 -0.03400587 -0.018880192
-0.017290168 -0.038731974 0.015639948 -0.026375147 -0.03213275 9.9418234e-05 0.038888376 0.045918543
0.012061436 -0.01654154 -0.0010733791 0.0371596 0.004702285 -0.028773407 0.05178 0.046679437
-0.024623653 0.03732881 0.024825148 -0.016154062 -0.006460709 -0.03179365 0.012967822 0.036282476
-0.044650752 0.034272585 0.011094816 0.015356434 -0.0042600282 0.038975105 -0.018769462 0.025977995
-0.03892981 0.007907172 0.031634267 -0.044935938 -0.01859047 0.03224581 -0.027215395 -0.018626401
-0.01418542 0.009377985 -0.0036016607 0.03478138 -0.00044778117 0.02334539 0.052325517 0.048471764
0.043256704 0.03602476 0.043212447 -0.038816653 0.051277127 -0.0027911332 -0.024222022 0.0006228169
0.008553382 -0.031405184 0.047005337 0.024169644 -0.0049887253 0.031014338 0.038471136 0.033606645
0.054168552 -0.038592786 -0.037410393 -0.032699138 0.049657784 0.025136342 -0.007303149 0.024808984
0.041363187 -0.01814069 0.029228125 -0.013979094 -0.036200043 0.010403075 0.04780417 -0.021598486
-0.017020417 0.015681654 0.04061063 0.008293542 0.0076734223 0.0032497526 -0.008426244 -0.0050520813
0.013106106 -0.025779221 -0.022346009 0.04306116 0.012004509 0.029235575 -0.012983614 0.009806129
-0.0071663857 -0.029326526 0.0028622346 0.026353506 -0.023174722 0.0017857153 -0.0036826264 -0.035245694
-0.04079297 0.019587 0.036195528 0.0013088685 -0.004840943 0.027263835 -0.0026260444 0.040057052
00000000: ce4f f439 37f2 efbc bf35 6a3c 4036 24bd
00000010: dd8f 753c 3938 fa3c 21ab 53bc f6a2 ff3c
00000020: 11c5 3ebc 08c3 26ba 94ee a33b b231 8abc
00000030: a839 c0bc 3a9a 5b3c 38e2 423c 1690 0dbd
00000040: 7a2d 8c3c 03d0 02bd 9fcf 2cbd 55aa 073c
00000050: 3afd 1cbd 70a4 183c 139f 73bc f6bc c1bc
00000060: 8f87 4c3d 502e 4e3c f5bf be3a 9487 933c
00000070: cec3 c4bc e93b e73b b56e 023d 32a9 2b3d
00000080: 3e48 57bc 3ddf b13a 4a11 473d 8da3 0d3d
00000090: c49c 333d 99e5 16bd 6930 29bd 931e 23bd
000000a0: b5af 06bb d7df 9a3a c414 ae3b bbcf 323c
000000b0: e103 e0bc 7a17 efbc 76b9 dd3c dd83 e03c
000000c0: 7ff7 53bc c4d0 c0bc ba11 28bd faae a1bc
000000d0: a030 8c3c f632 a9bc a8c5 94bc 1bff 01bd
000000e0: 8264 133d 5d72 a33c a18b 153d cc9a db3c
000000f0: 102b c03b a794 053d 154c d13c b633 1b3d
00000100: a7f6 eabc 47a0 b93c f884 f1bc 364f 1a3c
00000110: 5407 0cbd c264 22bd a3c6 a23b c393 a4bc
00000120: 433e 8fbc c828 03bd 45d7 09bd c2bd 423c
00000130: ad52 d53c e234 e43c 903e 023d 1745 cf3c
00000140: 700d dab8 e6c6 cabc 7d67 533c 3209 363d
00000150: 8e29 9d3c 58a7 b7bc 89c1 76bb f8ef dc3c
00000160: b873 c53c 837c 1f3d fa80 a33c 3d4c eb3c
00000170: 7a6b 023d 2dc5 f9bc 6bd5 abbc dadd 30bc
00000180: f669 f23c ec9f e7bc 1db9 e03c 5644 bdbc
00000190: 50ce 093d 75ad 653d 7279 14b7 04de 073d
000001a0: f7a0 10bd 6fba 8cbc 8207 8abc b1b7 333c
000001b0: 9dcc 3e3d ab92 ae3c c008 ff3c 4f36 323d
000001c0: 0ad3 513d f524 c2bc 7280 69bc 03a0 0f3d
000001d0: 15ff f0bc e4f2 cd3c 1745 f4bb 8765 2dbd
000001e0: 0ff1 08bd 0243 90bc 723d 5ebc ee65 9b3b
000001f0: 09c2 09bc 21b6 343d aea8 0c3d af8e 023d
00000200: d0fc 343d ce17 2bbd 9152 22bd 4e4f 8e3c
00000210: 0ec5 743c 705a 22bd ea66 2a3d be3b ef3c
00000220: eef1 5c3c 0425 1cbd 43b1 aabc 1176 38bc
00000230: 0c5a 5c3c ad39 453d bd49 0bbd a2aa 9abc
00000240: 1ca4 8dbc 6ba5 1ebd 591f 803c b110 d8bc
00000250: a19d 03bd c27e d038 6b49 1f3d 1515 3c3d
00000260: 549d 453c 2082 87bc a0b0 8cba aa34 183d
00000270: a015 9a3b 35b6 ebbc 4417 543d f032 3f3d
00000280: 8bb7 c9bc 18e6 183d 1c5e cb3c 8655 84bc
00000290: 5bb4 d3bb 0f3a 02bd fd76 543c ef9c 143d
000002a0: b5e3 36bd 6961 0c3d 08c7 353c 8d99 7b3c
000002b0: b597 8bbb 5ca4 1f3d 6ac2 99bc cecf d43c
000002c0: dd74 1fbd 158d 013c ef92 013d bf0e 38bd
000002d0: 0b4b 98bc 2f14 043d d2f2 debc 6596 98bc
000002e0: f769 68bc 1fa6 193c d709 6cbb ec76 0e3d
000002f0: 2cc4 eab9 d53e bf3c 4853 563d 548a 463d
00000300: f12d 313d b38e 133d 89ff 303d 36fe 1ebd
00000310: f707 523d 72eb 36bb 436d c6bc 8944 233a
00000320: 7c23 0c3c b9a2 00bd ab88 403d 6bff c53c
00000330: 7678 a3bb c811 fe3c e993 1d3d 1fa7 093d
00000340: d8df 5d3d 7813 1ebd a43b 19bd 88ef 05bd
00000350: f665 4b3d bbea cd3c 414f efbb 363c cb3c
00000360: 726c 293d c99b 94bc d26f ef3c 9208 65bc
00000370: 7f46 14bd a971 2a3c 4ece 433d 4fef b0bc
00000380: 676e 8bbc d076 803c 5557 263d a3e1 073c
00000390: 5571 fb3b cdf9 543b 3b0e 0abc ee8b a5bb
000003a0: feba 563c f22e d3bc fa0e b7bc e660 303d
000003b0: 8fae 443c 727f ef3c 39b9 54bc e3a9 203c
000003c0: 00d4 eabb 2f3e f0bc 5494 3b3b 4fe3 d73c
000003d0: ead8 bdbc aa0e ea3a 3858 71bb ca5d 10bd
000003e0: 8816 27bd eb74 a03c c341 143d 578e ab3a
000003f0: c6a0 9ebb 6858 df3c b719 2cbb dd12 243d

fc2.weight f4 [128, 256]
-0.0098808175 -0.053934254 0.017900705 0.03767335 -0.054351706 0.03587422 -0.030467175 -0.045365456
0.03246559 0.106069125 -0.015283957 0.0013966454 -0.024780935 -0.028056487 0.04044977 0.0095761325
-0.003516847 -0.03913288 0.02633348 -0.09011034 0.039216284 0.071964905 0.04948721 -0.0039320076
0.046396744 -0.026227146 0.058052976 -0.066795744 -0.028168706 0.02156601 -0.030655125 0.017488018
0.10969423 0.050246835 -0.0032535132 0.11234619 0.06637463 -0.02858284 0.0035036097 -0.0070596715
0.070328094 0.026530923 -0.043300766 -0.10111766 -0.0017241779 0.05372648 -0.010222919 0.036953278
-0.09999129 0.06654211 0.06651099 0.06817432 -0.042594906 -0.0081404755 0.10694801 -0.10279932
-0.0712077 -0.02079064 -0.054601148 0.024275767 0.07848615 0.057096932 0.0062815202 -0.05762988
0.05064899 0.0044015646 0.0038161878 0.020629566 -0.06450278 0.01523428 -9.777333e-05 0.06290705
-0.06850583 -0.043313 -0.007824862 -0.028101701 0.043618802 -0.0037494816 0.120800875 0.06320985
-0.040448155 0.014128885 0.13815905 0.054400787 -0.0012023954 0.09254048 0.00026171913 0.00774149
-0.0228674 0.098904885 0.029328952 -0.036027107 -0.123470336 0.036902744 -0.008288973 -0.059332427
0.023402572 0.030226244 -0.012846345 -0.005497322 -0.07648405 0.032498155 0.03811921 -0.012977374
-0.04726702 0.055534676 -0.020695167 0.055997476 -0.05315822 0.1496631 0.05737609 0.06851261
0.10498234 0.03920716 -0.0036662852 -0.056970045 -0.028399691 0.06103333 0.053762678 0.046796042
-0.03721966 -0.039546747 0.044998802 -0.01572603 -0.031713404 0.048173763 -0.008421282 -0.0029927425
-0.001114632 -0.05858831 -0.021109974 -0.056848202 -0.024207978 0.026413558 0.0064645605 0.09908127
-0.0020080393 -0.03767086 0.0032483323 0.026093863 0.01282201 0.011508747 -0.03533471 0.008347503
-0.060165413 0.007537871 0.04531121 -0.0030239876 0.0029947162 0.021560092 -0.092481405 0.030506348
-0.0057889223 0.0066738892 -0.02691907 0.040063426 0.02225092 0.049572527 0.050474696 -0.06020794
-0.027263433 0.03495367 0.018814996 -0.060839586 -0.045380857 -0.08241987 -0.022596447 0.016059898
-0.057571497 0.041001193 0.026898 -0.0011454833 -0.01914394 -0.047313277 0.015663277 0.03352112
0.037093714 0.023254232 -0.04014085 0.05897991 0.01703941 -0.047682967 -0.045109577 0.026368324
0.06444733 -0.10242565 0.03467328 0.060377445 -0.077732675 -0.02743056 0.03990165 0.040106688
-0.006642282 0.017428404 0.026404465 0.032099664 0.08809842 -0.05592887 -0.059786975 0.026572865
0.06726536 -0.008948692 -0.020248683 0.09688176 -0.040895388 -0.027350452 -0.00837096 0.036278557
0.043068092 0.010090909 0.0060688127 -0.013945618 0.13040085 -0.06874076 0.0074358266 -0.03978325
-0.03325691 0.042932454 -0.028165026 -0.02889107 -0.057005182 0.056216955 0.06451816 -0.017205523
0.076036446 0.059328515 0.036705185 -0.027702836 -0.0019017325 0.0060582184 0.07026016 0.018295081
-0.05572446 0.025994647 -0.09303085 -0.010980615 0.05269672 0.018974846 0.025420511 0.05835849
-0.051263995 0.044149455 0.12939933 -0.0740772 -0.014355451 0.11841617 -0.07376446 0.032965854
-0.04216975 -0.016205506 0.06489875 -0.106724046 0.057556655 -0.063168325 -0.020145252 -0.008303325
00000000: 27e3 21bc 2aea 5cbd 80a4 923c 5f4f 1a3d
00000010: e59f 5ebd d9f0 123d 4c96 f9bc 21d1 39bd
00000020: a3fa 043d c53a d93d 9069 7abc a50f b73a
00000030: 6301 cbbc b8d6 e5bc a8ae 253d 36e5 1c3c
00000040: e77a 66bb cc49 20bd 4fb9 d73c c58b b8bd
00000050: 41a1 203d 5662 933d 1ab3 4a3d 12d8 80bb
00000060: 830a 3e3d 50da d6bc f5c8 6d3d 35cc 88bd
00000070: 0fc2 e6bc 33ab b03c 7520 fbbc 0843 8f3c
00000080: 5ea7 e03d a0cf 4d3d e538 55bb c215 e63d
00000090: 6cef 873d 8f26 eabc d19c 653b d154 e7bb
000000a0: 2d08 903d 6157 d93c 255c 31bd c716 cfbd
000000b0: cffd e1ba 4c10 5c3d 087e 27bc 525c 173d
000000c0: 3cc8 ccbd 3b47 883d ea36 883d fa9e 8b3d
000000d0: ff77 2ebd a15f 05bc 8f07 db3d 7388 d2bd
000000e0: 58d5 91bd 2251 aabc 74a5 5fbd f9dd c63c
000000f0: 59bd a03d 79de 693d 36d5 cd3b 4f0d 6cbd
00000100: 5175 4f3d 003b 903b 0219 7a3b 56ff a83c
00000110: 091a 84bd 3499 793c a80b cdb8 69d5 803d
00000120: c94c 8cbd f968 31bd da33 00bc 8a35 e6bc
00000130: a1a9 323d ddb9 75bb 7366 f73d 2a74 813d
00000140: f7ac 25bd d77c 673c 9179 0d3e 5cd3 5e3d
00000150: b299 9dba dd85 bd3d 5937 8939 53ac fd3b
00000160: 6a54 bbbc a58e ca3d 4543 f03c 2991 13bd
00000170: 04de fcbd 5527 173d 79ce 07bc 8f06 73bd
00000180: c0b6 bf3c 079d f73c 7a79 52bc e122 b4bb
00000190: aba3 9cbd c91c 053d e422 1c3d 0d9f 54bc
000001a0: 109b 41bd 5478 633d e988 a9bc 9c5d 653d
000001b0: 6fbc 59bd 4941 193e 3103 6b3d 5750 8c3d
000001c0: fb00 d73d b097 203d 0f46 70bb 6c59 69bd
000001d0: 78a6 e8bc 16fe 793d 4136 5c3d 35ad 3f3d
000001e0: a473 18bd c5fb 21bd aa50 383d e0d3 80bc
000001f0: eae5 01bd da51 453d 6bf9 09bc e321 44bb
00000200: d818 92ba 4cfa 6fbd d3ee acbc a9d9 68bd
00000210: cf4f c6bc 3f61 d83c aad4 d33b 1feb ca3d
00000220: 4f99 03bb c24c 1abd f9e1 543b ccc2 d53c
00000230: 6813 523c 2f8f 3c3c 21bb 10bd f7c3 083c
00000240: 0270 76bd 3f00 f73b 3f98 393d 182e 46bb
00000250: 0043 443b ca9e b03c e466 bdbd 73e8 f93c
00000260: 00b1 bdbb a4b0 da3b 6285 dcbc 8c19 243d
00000270: 9047 b63c 900c 4b3d 8ebe 4e3d 9a9c 76bd
00000280: 9057 dfbc 942b 0f3d e821 9a3c ee32 79bd
00000290: 47e1 39bd c0cb a8bd 2f1c b9bc 0c90 833c
000002a0: 17d0 6bbd def0 273d 3259 dc3c 0b24 96ba
000002b0: c1d3 9cbc 91cb 41bd 4650 803c 714d 093d
000002c0: 94ef 173d a97f be3c bb6a 24bd eb94 713d
000002d0: 3c96 8b3c 374f 43bd d2c4 38bd 6202 d83c
000002e0: f6fc 833d 8ac4 d1bd 9205 0e3d 574e 773d
000002f0: 4f32 9fbd 0eb6 e0bc ea6f 233d e946 243d
00000300: 80a7 d9bb 03c6 8e3c 2d4e d83c f07a 033d
00000310: f26c b43d ac15 65bd 30e3 74bd 56af d93c
00000320: 6cc2 893d 899d 12bc 91e0 a5bc f269 c63d
00000330: ec81 27bd 0e0e e0bc 5a26 09bc d398 143d
00000340: 2b68 303d 5754 253c e4dc c63b 297c 64bc
00000350: cd87 053e f5c7 8cbd 3ca8 f33b c3f3 22bd
00000360: 6638 08bd f1d9 2f3d 57ba e6bc f7ac ecbc
00000370: 447e 69bd c043 663d 1922 843d 99f2 8cbc
00000380: ffb8 9b3d 7502 733d 2d58 163d 0ff1 e2bc
00000390: 8e43 f9ba 0584 c63b 8fe4 8f3d 91df 953c
000003a0: 553f 64bd baf2 d43c f586 bebd 0ae8 33bc
000003b0: 84d8 573d 2371 9b3c ad3e d03c 5009 6f3d
000003c0: 32fa 51bd 0fd6 343d 4281 043e c9b5 97bd
000003d0: 2033 6bbc 2d84 f23d d211 97bd 3407 073d
000003e0: 30ba 2cbd 69c1 84bc a3e9 843d 2392 dabd
000003f0: 87c0 6b3d 655e 81bd a807 a5bc ab0a 08bc

fc2.bias f4 [128]
0.016098808 0.0336918 -0.014327064 -0.009433524 0.025982544 0.063044764 0.04080821 0.011735261
0.011036193 -0.06299351 0.03566235 0.03238412 -0.009532023 -0.042769793 -0.042066433 0.022148324
0.04105799 -0.053526513 0.034712262 -0.05920707 0.013671908 -0.018035302 0.035829768 -0.038324304
-0.01859739 0.060461655 0.016671833 0.018595023 0.072437905 -0.043164343 0.07199503 -0.051933996
-0.04409199 -0.010837694 -0.0004886388 0.038269643 0.04846099 -0.050702747 0.06685059 0.024345739
0.006075178 -0.034780867 -0.04000853 0.043169387 0.020616641 -0.059744675 0.055665065 0.016985945
-0.048677582 -0.021355573 -0.07192507 0.04096396 0.06718162 0.06397369 0.057593785 -0.02235169
-0.029697573 -0.018229509 -0.06280097 0.014658285 0.036459092 0.12566292 -0.032091923 -0.019026069
-0.024593078 -0.020188302 0.020415526 -0.04331207 0.045609027 -0.021215372 -0.017291462 0.006526384
-0.052540522 -0.00082134205 0.07298259 -0.05130253 -0.015787099 0.011737278 0.014734589 0.015396674
-0.04859719 -0.034631323 0.015526755 0.023840435 0.041639127 0.06723611 -0.02412275 0.07224962
0.016419454 0.04756515 -0.057122804 0.0141858915 -0.036504332 -0.05581854 -0.023746736 0.00052915124
-0.03629938 -0.007651588 0.0071674087 -0.066788375 -0.06772532 0.039560985 -0.060171433 0.0072883093
-0.01945251 -0.0029968682 0.0076936814 -0.04355916 -0.03995411 0.06991726 0.027789593 -0.022851583
0.08646888 -0.044820298 0.021653317 -0.02989139 -0.017742144 -0.06286681 -0.0054198485 -0.0244416
-0.0055212383 -0.0312177 0.050332673 0.011137218 -0.03332001 -0.046648532 0.03677175 -0.01314816
00000000: a6e1 833c 6a00 0a3d 10bc 6abc 118f 1abc
00000010: 58d9 d43c 9d1d 813d 8226 273d 4145 403c
00000020: 26d1 343c be02 81bd af12 123d 36a5 043d
00000030: 342c 1cbc 612f 2fbd da4d 2cbd 6770 b53c
00000040: 6c2c 283d 9e3e 5bbd 722e 0e3d 1d83 72bd
00000050: 2300 603c c5be 93bc 3cc2 123d f2f9 1cbd
00000060: 8e59 98bc a4a6 773d 5e93 883c 9754 983c
00000070: 535a 943d 18cd 30bd 2172 933d beb8 54bd
00000080: cd99 34bd 9590 31bc ff17 00ba a1c0 1c3d
00000090: 087f 463d afad 4fbd f6e8 883d b770 c73c
000000a0: 4912 c73b 6276 0ebd fcdf 23bd 62d2 303d
000000b0: 3be4 a83c d5b6 74bd 0d01 643d 1c26 8b3c
000000c0: 2562 47bd e2f1 aebc 734d 93bd d3c9 273d
000000d0: 8496 893d a304 833d 76e7 6b3d e41a b7bc
000000e0: 5348 f3bc 0d56 95bc cc9d 80bd 4e29 703c
000000f0: 2156 153d c8ad 003e d272 03bd 8fdc 9bbc
00000100: 6c77 c9bc f061 a5bc 763e a73c ff67 31bd
00000110: 88d0 3a3d dccb adbc d3a6 8dbc 47db d53b
00000120: bb34 57bd 554f 57ba e577 953d 9a22 52bd
00000130: f253 81bc b64d 403c 5869 713c 5542 7c3c
00000140: d90d 47bd 93d9 0dbd ee63 7e3c 044d c33c
00000150: ca8d 2a3d 16b3 893d 139d c5bc 9cf7 933d
00000160: 1782 863c add3 423d 9af9 69bd f16b 683c
00000170: 9185 15bd fba1 64bd 8488 c2bc bdb6 0a3a
00000180: a9ae 14bd 2cba fabb 95dc ea3b 58c8 88bd
00000190: 93b3 8abd b30a 223d 5276 76bd c5d2 ee3b
000001a0: df5a 9fbc 1b67 44bb 471b fc3b 176b 32bd
000001b0: eca6 23bd c830 8f3d 00a7 e33c 3e33 bbbc
000001c0: 9916 b13d 7d95 37bd 4c62 b13c cade f4bc
000001d0: f957 91bc 50c0 80bd fc98 b1bb c039 c8bc
000001e0: 81eb b4bb 43bc ffbc a229 4e3d e178 363c
000001f0: 907a 08bd 8812 3fbd f99d 163d 616b 57bc

fc3.weight f4 [44, 128]
0.23523043 -0.01569659 0.17635754 0.029410394 -0.089988746 0.08128804 -0.108261816 0.25149935
0.008817132 0.088016674 0.11039155 -0.06669872 -0.055068906 -0.089404814 0.029827062 -0.011487532
-0.059931204 0.025637439 0.047149286 -0.18682556 -0.053475153 -0.08078732 -0.06744312 -0.0067222686
0.07278331 0.0890852 -0.057382632 0.05718611 0.07736972 0.003463308 -0.06683036 0.023144348
-0.08876044 -0.05891369 0.05519889 -0.013828167 0.27987245 -0.04651821 0.097391784 0.025806194
-0.07646864 0.10046325 -0.10587203 -0.008419742 -0.016194506 -0.146153 -0.018542793 -0.16385159
-0.18379016 -0.030941077 0.060688566 0.011191014 -0.064191416 0.0013615002 -0.043744985 0.06095471
-0.10413564 0.021502623 0.082269624 -0.0139387725 0.059004553 0.119187586 0.042301234 -0.06898845
0.059177518 0.05527042 -0.17319126 -0.10328938 0.05314994 0.21010834 0.004377456 0.10707514
0.022335425 0.05309041 0.09710285 -0.05155179 -0.048607506 -0.09969287 -0.08343153 -0.20032568
-0.046350162 0.08516409 0.046046942 -0.05134265 -0.072259195 0.18486978 -0.043148685 0.18446407
0.04713447 0.00047786825 -0.043365095 0.042288512 -0.22849202 0.0017909851 0.016190149 -0.025750848
-0.016806671 -0.11281841 0.11896273 0.04749541 -0.016103338 0.020062989 -0.05677252 -0.08825687
0.0996116 0.023152774 -0.08202563 -0.04984485 0.14132321 0.19304541 0.031218037 0.04185404
0.14831185 -0.16199763 -0.031322803 -0.18186072 -0.027729725 -0.104658514 0.013342948 -0.11292713
-0.041602388 -0.024135107 0.1785752 0.1607599 0.027532795 0.08574873 -0.1162945 0.04020803
0.08736468 -0.07618383 0.094538115 -0.1015924 0.0067167035 -0.022295957 -0.26200223 0.11987765
0.019546757 0.04350234 0.044161674 0.004914957 -0.049408346 0.15404646 0.047628414 -0.06991841
-0.043588046 0.090032876 -0.10184603 -0.05885472 -0.052841187 0.035996415 -0.012542213 -0.10876906
-0.07185737 0.057580706 -0.039070163 0.00028327262 -0.13668242 -0.03468644 0.119244136 -0.056439746
0.00069626584 -0.12348647 -0.22257355 -0.059001774 0.25273168 -0.043522574 0.077575415 -0.060095616
-0.023090206 0.019693438 -0.052432667 -0.09465682 0.07606405 -0.119504355 0.039459188 0.10589993
-0.028880646 -0.06726092 0.012427036 0.18466657 0.015674131 -0.036030002 0.08749174 0.044477757
-0.1445925 -0.026212823 0.07021234 -0.082460955 0.05763913 0.037751604 0.006746065 0.06624904
0.033953812 -0.070044145 -0.117088124 -0.13892733 -0.07844151 0.036745474 -0.08040512 0.020909796
-0.06749636 -0.08738628 -0.009177559 0.09986128 -0.045416217 0.1483245 0.053145535 0.11016366
0.037350763 0.054292433 -0.035752527 -0.016713308 -0.12213869 -0.01441186 -0.059858914 -0.052669555
-0.08148451 0.038884655 0.03624046 0.04238638 0.052745327 -0.02379316 0.0869105 -0.02120128
0.052290052 0.06878065 -0.11162691 0.03927765 -0.08328258 0.071967036 -0.06125541 0.019006489
0.041724287 0.00049392285 0.10726659 -0.035638854 0.21360512 0.123821616 0.046270955 0.09484589
0.17713004 -0.10428753 0.02058176 -0.16710831 -0.01871705 -0.056020033 0.058604185 -0.06885639
0.037658174 -0.020588223 0.048629265 0.29010805 -0.0027998055 -0.055104956 0.069390126 0.058710724
00000000: 3fe0 703e 2396 80bc 1297 343e 11ee f03c
00000010: 054c b8bd 587a a63d 5fb8 ddbd 86c4 803e
00000020: bb75 103c 1642 b43d f714 e23d 5799 88bd
00000030: ef8f 61bd df19 b7bd e257 f43c 3436 3cbc
00000040: 6c7a 75bd 9b05 d23c 9c1f 413d 334f 3fbe
00000050: c308 5bbd d373 a5bd 9e1f 8abd 7a46 dcbb
00000060: 6b0f 953d 4d72 b63d 0d0a 6bbd fc3b 6a3d
00000070: 0474 9e3d abf8 623b 5bde 88bd 3799 bd3c
00000080: 09c8 b5bd 7b4f 71bd 3b18 623d 898f 62bc
00000090: 714b 8f3e e189 3ebd 5875 c73d 8367 d33c
000000a0: 979b 9cbd adbf cd3d 6fd3 d8bd f5f2 09bc
000000b0: 57aa 84bc 22a9 15be 0ee7 97bc b6c8 27be
000000c0: 7d33 3cbe 2478 fdbc 9394 783d 845a 373c
000000d0: ca76 83bd 5e74 b23a f12d 33bd a5ab 793d
000000e0: 1145 d5bd 4526 b03c fa7c a83d 735f 64bc
000000f0: c2ae 713d 9f18 f43d 0f44 2d3d d149 8dbd
00000100: 2064 723d 3c63 623d 0d59 31be 6289 d3bd
00000110: c0b3 593d a426 573e c370 8f3b 364a db3d
00000120: c8f8 b63c 5475 593d dcdd c63d f827 53bd
00000130: aa18 47bd c72b ccbd 26de aabd 2d22 4dbe
00000140: abd9 3dbd 836a ae3d b89b 3c3d ac4c 52bd
00000150: a1fc 93bd 814e 3d3e adbc 30bd 26e4 3c3e
00000160: 1310 413d 648a fa39 999f 31bd b836 2d3d
00000170: d0f9 69be 7dbf ea3a 34a1 843c 71f3 d2bc
00000180: 25ae 89bc 570d e7bd bba2 f33d 8c8a 423d
00000190: 26eb 83bc 235b a43c 4d8a 68bd 05c0 b4bd
000001a0: 2b01 cc3d e3aa bd3c 0efd a7bd 1d2a 4cbd
000001b0: 08b7 103e b2ad 453e f8bc ff3c 246f 2b3d
000001c0: 10df 173e b5e2 25be 574c 00bd b239 3abe
000001d0: 7329 e3bc 3457 d6bd 619c 5a3c 5746 e7bd
000001e0: 4467 2abd fdb6 c5bc 6bdc 363e 3e9e 243e
000001f0: 758c e13c 089d af3d d02b eebd 2db1 243d
00000200: 41ec b23d 4506 9cbd 339d c13d ad0f d0bd
00000210: cb17 dc3b 03a6 b6bc 2825 86be 6a82 f53d
00000220: 8520 a03c 822f 323d dfe2 343d a60d a13b
00000230: 6860 4abd 5bbe 1d3e 0316 433d 6231 8fbd
00000240: 6189 32bd 2863 b83d a794 d0bd a611 71bd
00000250: 0070 58bd fa70 133d db7d 4dbc 50c2 debd
00000260: f529 93bd bfd9 6b3d 0908 20bd 3584 9439
00000270: 7af6 0bbe 5e13 0ebd 4536 f43d 5d2d 67bd
00000280: 9c85 363a 79e6 fcbd 52ea 63be d8ab 71bd
00000290: 0c66 813e ba44 32bd dcdf 9e3d d226 76bd
000002a0: ac27 bdbc 2254 a13c a3c3 56bd 6fdb c1bd
000002b0: 78c7 9b3d b3be f4bd f59f 213d 10e2 d83d
000002c0: 1b97 ecbc 18c0 89bd c49a 4b3c 3c19 3d3e
000002d0: 0967 803c 3294 13bd df2e b33d 4f2e 363d
000002e0: 0e10 14be 46bc d6bc 7dcb 8f3d 4ae1 a8bd
000002f0: 0217 6c3d 6da1 1a3d 180e dd3b 94ad 873d
00000300: 2713 0b3d 4e73 8fbd e6cb efbd f742 0ebe
00000310: f1a5 a0bd 6c82 163d 71ab a4bd 054b ab3c
00000320: 883b 8abd 94f7 b2bd 795d 16bc 1284 cc3d
00000330: 5b06 3abd 61e2 173e 22af 593d 7c9d e13d
00000340: 1dfd 183d be61 5e3d 3e71 12bd 59ea 88bc
00000350: d923 fabd b91f 6cbc 9f2e 75bd 08bc 57bd
00000360: 5ae1 a6bd 8445 1f3d e070 143d 579d 2d3d
00000370: 7c0b 583d e0e9 c2bc 22fe b13d 4fae adbc
00000380: 182e 563d dfdc 8c3d a69c e4bd 9ae1 203d
00000390: 0f90 aabd 7463 933d f4e6 7abd 7fb3 9b3c
000003a0: 16e7 2a3d 9a7a 013a 96ae db3d 0cfa 11bd
000003b0: 4dbb 5a3e 3096 fd3d 9d86 3d3d 903e c23d
000003c0: 9461 353e b394 d5bd 149b a83c 711e 2bbe
000003d0: 8054 99bc 4375 65bd f10a 703d 9404 8dbd
000003e0: 753f 1a3d a2a8 a8bc 7b2f 473d 0b89 943e
000003f0: f17c 37bb bcb5 61bd 691c 8e3d a87a 703d

fc3.bias f4 [44]
0.1568825 0.069714256 0.16105635 0.09367785 -0.014660765 0.05436927 0.009373669 -0.047921345
-0.062202007 0.035888918 -0.0050066155 -0.039037615 -0.16820581 0.028596405 0.004941469 0.010595507
0.009254451 -0.082670055 0.03836271 -0.054586697 0.08785593 -0.021791976 -0.044369992 -0.16583724
0.0057817376 0.12212286 0.040686943 -0.09106912 -0.17693032 -0.05625738 -0.049375694 -0.18390974
0.015025088 -0.023639746 -0.06772171 -0.028228423 0.084105924 0.037127186 0.003772963 -0.044438343
-0.04026943 -0.030432284 -0.022234848 0.06979617
00000000: cea5 203e 59c6 8e3d f5eb 243e 2cda bf3d
00000010: b533 70bc 50b2 5e3d 0494 193c 2c49 44bd
00000020: 88c7 7ebd 4200 133d 890e a4bb e8e5 1fbd
00000030: 253e 2cbe 0243 ea3c 0cec a13b c798 2d3c
00000040: fb9f 173c eb4e a9bd 3822 1d3d 4d96 5fbd
00000050: cfed b33d 1685 b2bc 4fbd 35bd 3dd1 29be
00000060: bb74 bd3b 8d1b fa3d 5aa7 263d 7282 babd
00000070: 392d 35be 236e 66bd 2b3e 4abd d652 3cbe
00000080: c92b 763c 24a8 c1bc aeb1 8abd 4b3f e7bc
00000090: ba3f ac3d ad12 183d d143 773b fb04 36bd
000000a0: 8ff1 24bd 204d f9bc db25 b6bc 4bf1 8e3d
