src/python/saved_models/model_S_MLP_resnet18_15epochs_Cropped3.pt (torch, 681495 bytes, 6 tensors)

fc1.weight f4 [256, 512]
000000 86 55 43 bd 4c 89 3e bb 41 6f c9 3c 3d f6 91 3c
       -0.047688983 -0.0029073535 0.024589183 0.01781761
000010 16 18 e7 bc 36 fa 2f 3d 3e 52 45 3c b1 70 a4 3c
       -0.028209727 0.04296323 0.012043534 0.020073267
000020 a9 d0 d7 3c ca 02 28 3d 8d 57 57 3d 3e e1 a7 3c
       0.026344614 0.041018285 0.05257373 0.020493146
000030 bf 64 fe bc 9c b1 9c bc b4 33 10 3d f3 5c 28 3d
       -0.031053899 -0.01912766 0.035205558 0.04110427
000040 20 3b 0d 3c c5 5b 65 bc d6 d5 79 3c b0 25 27 bd
       0.0086200535 -0.01399893 0.015248736 -0.040807426
000050 d4 d2 2e 3c aa 06 01 3d 36 48 a0 3b cf af 92 bc
       0.0106703825 0.031500496 0.0048914207 -0.017906098
000060 36 0e 85 3c 8b 63 d7 bc 6d 0e 8c 3c 30 0e a7 bb
       0.016242128 -0.026292583 0.017096722 -0.005098127
000070 43 50 e7 bc b3 f4 1f bc 7f 40 a0 bb 8e 5f d0 bc
       -0.028236514 -0.009762931 -0.004890501 -0.025436189
000080 c0 5a f6 bb ab 65 fd 3c 7d c2 a1 bc 89 4c ba bc
       -0.0075181425 0.030932268 -0.01974606 -0.022741573
000090 e2 b6 da 3b 7a 6b 12 3d 1c 23 0d 3d d1 0b 44 3d
       0.0066746334 0.03574703 0.03445731 0.04786283
0000a0 49 d7 22 3a ca af 0c 3c 06 f3 0b bd c4 2f 6c 3d
       0.00062118896 0.008586833 -0.034167312 0.05766274
0000b0 06 aa a7 3c 6b da a6 3c 4e 66 35 bd 2c 20 1b bd
       0.020466816 0.020367822 -0.04428702 -0.03787248
0000c0 5f 91 86 3c 9f b3 9b bc 71 1d a8 3c 50 0c fa bc
       0.01642674 -0.019006548 0.020521851 -0.03052345
0000d0 99 98 05 3d 17 a0 b5 3c 4e 5f d6 3c 7b 69 c9 3c
       0.03261623 0.022171063 0.026168492 0.02458643
0000e0 87 8a 0f 3d 44 fb ab 3c 28 43 5d bd 0c 4b 29 bb
       0.03504422 0.020993836 -0.054019123 -0.0025832085
0000f0 0a eb cc bc 6c 73 ab 3c 44 5f 10 3d a8 d9 bc bb
       -0.02501442 0.02092906 0.035247102 -0.0057632513
000100 4b 5d 06 3d 8a 51 f4 bb 2a 89 b1 bc f9 33 b8 3c
       0.032803815 -0.0074560093 -0.02167185 0.02248572
000110 e6 65 c4 bc 75 86 13 bd 82 2d 3c 3c 7f 03 d0 ba
       -0.02397437 -0.0360169 0.011485459 -0.0015870183
000120 e5 f7 9d b8 0d f1 50 bc e6 a2 5b bc 08 77 76 bb
       -7.532517e-05 -0.0127527835 -0.013405537 -0.003760757
000130 51 b0 49 bc e1 95 1a bd e6 b2 e1 3b 8f 49 7a 3d
       -0.0123101035 -0.037740592 0.0068877814 0.061105307
000140 99 74 3f 3d 6a ec 0f 3c f9 d8 e5 bb 7c 82 8f bc
       0.046742056 0.008784393 -0.0070143905 -0.017518274
000150 35 1a 07 3d 57 0c 9b 3b 19 d8 96 bc 96 c1 6e 3c
       0.032983977 0.0047316956 -0.01841359 0.014572522
000160 c6 d8 bb 3c 69 f4 f5 bc 5f 6d 36 bc 25 c4 5a bc
       0.022930514 -0.03002377 -0.011134475 -0.013352429
000170 21 ba 39 3c d8 e5 52 3d a4 a6 ad bc e9 f9 c0 bc
       0.0113358805 0.051488727 -0.021197625 -0.023556666
000180 38 c8 5f bc 19 6d b6 3b a5 51 1f 3c f6 93 88 3c
       -0.013658576 0.0055672047 0.009724055 0.016672116
000190 b5 7d 9b 3c 8c 3e 02 3c 3a a2 c1 bb f6 d7 95 3b
       0.01898084 0.007949483 -0.0059092315 0.0045728637
0001a0 ee 7e 5f 3c ee 72 41 bb fa b2 ba 3c dd 4f 69 3c
       0.013641102 -0.0029517966 0.02279042 0.014240232
0001b0 d7 6e 3b bd 8e 87 fd 3c 27 5f 19 3d 54 aa b7 bc
       -0.045760002 0.030948427 0.03744426 -0.022420086
0001c0 6a 04 a8 3c da ac 7f 3b d8 30 b9 3c dd 7f 9d bc
       0.020509917 0.003901294 0.022606298 -0.019226009
0001d0 9e a9 9e 3c 20 ec 23 3d f5 bb d8 3c 68 54 82 bc
       0.01936799 0.04002011 0.026456812 -0.015909389
0001e0 04 46 25 3d dc 04 34 3c a9 a2 9d 3b e2 0a bb bc
       0.040349975 0.010987487 0.0048106504 -0.022832338
0001f0 84 0a 43 3d 41 95 62 bc 3f e0 0a bd 0b ad 1f bb
       0.04761745 -0.01382953 -0.033905264 -0.0024364616
000200 c9 ca 8c 3c f3 3e 12 bd d9 94 3a bd 19 6b 4a bb
       0.01718654 -0.035704564 -0.04555211 -0.003088659
000210 42 ad 20 3d e0 a5 67 3c 89 7d d1 3c 06 cb 54 bd
       0.03922773 0.014138669 0.025572555 -0.05195143
000220 77 4e 5b bd bc 76 85 bc 36 04 15 3c d3 07 b1 bc
       -0.053541627 -0.016291969 0.009095242 -0.021610176
000230 fd 15 8f bc de f8 cc 3c 52 5c 9f 3c 8c 0c 1d 3b
       -0.01746654 0.025021013 0.019453201 0.0023963777
000240 7a eb d7 bc ae 52 ec bc 45 2b 2c 3d 2e 1e 4c bc
       -0.026357401 -0.028848018 0.042033453 -0.012458367
000250 57 22 ca 3c 4f 27 06 bc 4a bc dd 3c 54 a9 06 bd
       0.024674578 -0.008188083 0.027067322 -0.032876328
000260 d7 d1 1a 3d 23 0e d3 3c ff 41 94 bc ba c2 e5 3c
       0.037797775 0.025763577 -0.018097876 0.028046954
000270 ed b4 20 bd c7 5d e9 3c a6 c8 13 bd 2e a5 f4 3b
       -0.039235044 0.0284871 -0.036080025 0.00746598
000280 2e d5 c8 bc 76 53 cf bc ce 44 27 3d 7f dd 8a bc
       -0.024515714 -0.025308352 0.0408371 -0.01695132
000290 4d 84 a8 3c 84 77 49 3d bc ad 89 3c 5d 50 3f bc
       0.020570898 0.049186245 0.016806476 -0.011676875
0002a0 7f 24 86 bc d5 20 bd bc c0 8d 31 3d 77 7e 11 bd
       -0.016374825 -0.023086945 0.043348074 -0.035520997
0002b0 1b fd 2f ba 61 d4 fc bc ca 0d 03 bd cc 72 e8 bc
       -0.0006713436 -0.030862989 -0.031995572 -0.028375052
0002c0 23 33 95 bc a7 0d 48 3d a7 0e 18 3c 76 75 3f 3d
       -0.01821286 0.048841145 0.009280837 0.04674288
0002d0 85 84 b8 3a 74 dc 5f 3d fd 6e 5f bc 25 96 00 3d
       0.001407758 0.0546536 -0.0136373015 0.03139319
0002e0 01 fb 07 bd e6 4e 8e bb d2 f2 0a 3d a7 90 4a bd
       -0.03319836 -0.0043429015 0.033922978 -0.049454357
0002f0 f1 1e c0 3c 88 9a 9d 3b 6b 83 db 3c ae d4 4d bc
       0.023452254 0.0048096813 0.026796063 -0.012562914
000300 ac 38 c1 bc 44 c4 3f 3d 6c 93 9f bc 94 fe 61 3b
       -0.023586594 0.046818033 -0.019479476 0.0034484016
000310 aa 4d cf bc ce 85 25 bc 50 f8 05 3d 85 ff 34 3d
       -0.025305588 -0.010102702 0.032707512 0.044188995
000320 86 59 90 3c 3c e6 c0 3b 8f 64 26 ba 2d 1c 86 3b
       0.017620813 0.005886821 -0.0006347382 0.0040927143
000330 36 fb 01 3d 90 d3 35 3d 2c 43 5a bc bd 0f 0e 3d
       0.031733714 0.044391215 -0.013321679 0.034682978
000340 2e ee f6 bc 05 55 3d bd a8 07 25 bc 24 00 d2 3c
       -0.03014287 -0.04622366 -0.010072626 0.025634833
000350 e7 41 88 3c 25 fe 30 3d 69 4b 57 bd 8e 32 bd bc
       0.016632987 0.04321112 -0.05256215 -0.023095395
000360 b2 d4 49 3b 67 bb 04 3d af 20 5c bd d7 7b 22 bc
       0.0030796942 0.032405283 -0.053742107 -0.009917221
000370 2d 13 f8 3c 22 4f e8 bb ac 41 c9 3c 76 e6 0f 3b
       0.030282581 -0.0070895115 0.024567448 0.0021957434
000380 a8 7f 4a 3d f1 4c c7 bc 1f 13 3a bd 54 26 8d 3c
       0.04943815 -0.02432868 -0.04542839 0.01723019
000390 a6 7b 86 bc 11 12 d8 bc 2c 37 27 3d fb 75 33 bd
       -0.016416382 -0.026375802 0.0408241 -0.043813687
0003a0 27 72 c8 3c b1 49 05 3b 7e 1c db bc dd 3d a2 3c
       0.024468495 0.0020338113 -0.026746985 0.01980489
0003b0 91 1d b6 3c 8d a4 ba bb 60 e3 1e 3c 0a ce 96 3a
       0.022230895 -0.0056958855 0.009697765 0.0011505496
0003c0 e7 bd 7a bc 19 de 11 3c 0a 21 f4 bb 64 bf 6a 3b
       -0.015304065 0.00890305 -0.0074502276 0.0035819644
0003d0 7d 47 aa bc b9 96 d8 bc 1d cd ab bc 88 b1 28 3d
       -0.020786041 -0.026439058 -0.02097183 0.041184932
0003e0 0c a9 cc 3c 11 69 a6 3c 67 24 4b 3c 69 3b 25 3d
       0.024982952 0.020313771 0.012398816 0.04033986
0003f0 d2 24 2a 3d 1e 24 1a bc 92 9a 9d bc 27 ef 35 bc
       0.04153902 -0.009408025 -0.019238744 -0.011104382

fc1.bias f4 [256]
000000 42 1f a3 bc 30 2a 25 bd c4 5c 32 3d 1a 10 81 3d
       -0.019912366 -0.040323436 0.0435455 0.06301899
000010 8e d6 13 3c bf c9 0c 3d 7a 07 a5 bc ac 91 15 3c
       0.009023322 0.034372088 -0.020145167 0.009128969
000020 d9 b6 19 bd 2e 95 15 bd b2 14 ef bc bb 2b c5 3c
       -0.037527893 -0.036519222 -0.029184673 0.024068704
000030 6a af 16 3a 22 5a f3 3c cb 4e 19 bd ba 46 16 bd
       0.00057481846 0.029706065 -0.03742866 -0.036688544
000040 ca 2e 20 3d a5 30 61 3d 22 e1 96 3c 01 59 ee 3c
       0.03910712 0.05497803 0.018417899 0.029095175
000050 ee 01 ed 3c cc 64 e4 bc 45 a9 dd bb 04 a2 e9 3b
       0.028931584 -0.027880095 -0.0067645633 0.0071299095
000060 aa ff db 3b 85 05 eb 3c 7c d4 a8 bc d2 83 27 bd
       0.006713827 0.028689155 -0.020609133 -0.040897198
000070 15 5a 16 3d bd 0c 1d bd 9e 05 f5 bc 76 79 9b bc
       0.036707003 -0.038342226 -0.029909905 -0.018978816
000080 47 12 8e 3a c7 8b 0a bd 38 7e 96 3c 72 62 0a bd
       0.0010839187 -0.03382471 0.018370733 -0.03378529
000090 68 6e cd bc f5 19 31 3d de ef 3a bd 4e 47 21 bb
       -0.02507706 0.043237645 -0.04563891 -0.0024609151
0000a0 27 83 31 3d 05 be 87 bc 98 42 60 3d db 2e bc bb
       0.043337967 -0.0165701 0.05475101 -0.0057428903
0000b0 1d 8b d6 3b 88 ff a3 3c 42 8a c2 bc 66 24 8b ba
       0.0065473453 0.020019308 -0.023747567 -0.0010615706
0000c0 76 db 82 3c 08 a8 fc bc 34 46 ed 3c 24 ad 70 3d
       0.015973788 -0.030841842 0.02896414 0.05875887
0000d0 5a 58 e7 3c 0f 4c e3 3a fe dd 90 3c 17 f0 5f 3c
       0.028240371 0.0017341393 0.01768398 0.013668082
0000e0 e2 de ef 3b 7c b3 1b 3c 60 72 22 3c bf 19 12 3d
       0.007320271 0.009503242 0.009914964 0.035669085
0000f0 8b e0 c9 3c 0d 3f 1f 3c 54 af 24 bc 94 6e 35 3d
       0.024643203 0.009719622 -0.010051567 0.04429491
000100 5d ca 8a 3c 18 c2 36 3d 13 43 00 bd 10 8b b0 bc
       0.016942197 0.044618696 -0.031313967 -0.021550685
000110 4a 8d e1 3c 23 69 27 bd 53 a4 e1 bb fa ba 25 bd
       0.027533192 -0.04087175 -0.006886044 -0.040461518
000120 21 54 09 bd f2 15 8e bc c7 3c b3 bc a6 cc 1a 3c
       -0.033527497 -0.017344449 -0.021879567 0.009448206
000130 f8 4d 56 bc 03 dc 7c 3d 53 e6 df 3b 10 e6 2a 3d
       -0.013080113 0.061733257 0.0068328767 0.04172331
000140 fb 0a b7 3c 54 21 b2 3b 00 31 12 3d e8 6c 37 3b
       0.022344103 0.005436102 0.03569126 0.0027988497
000150 3b 0f e6 bc 46 66 9c 3b e0 f6 22 3d 8a 38 d5 3b
       -0.028083434 0.004772934 0.03978622 0.006506984
000160 77 f4 07 bb 81 98 ee 3c ba e5 b1 bc 30 46 8f bc
       -0.0020745078 0.029125454 -0.021715987 -0.017489523
000170 81 97 ac 3a 85 a8 37 bd 70 89 fd 3b 1f 5e 33 bd
       0.001316771 -0.044838447 0.007737331 -0.043790933
000180 e5 f5 92 3c fe 8f 40 3c 94 d9 f7 bb 7b 05 fd 3c
       0.017939517 0.01175308 -0.007563779 0.030886402
000190 24 4d ba bb b5 bb 0c bc 34 5b ad 3c cb ec de bc
       -0.0056854654 -0.008589675 0.021161653 -0.027212521
0001a0 96 25 c8 bc 07 c5 03 bb 97 43 61 3c b9 90 0d bd
       -0.024431985 -0.002010645 0.013749025 -0.034561846
0001b0 44 3b e7 3b 16 de fd bc 08 b7 6a bd e8 28 02 3c
       0.0070566256 -0.030989688 -0.05730346 0.007944323
0001c0 e5 39 3e bd 4a c8 63 3c e4 13 f0 bc f3 e4 00 bd
       -0.04644193 0.013902733 -0.02930636 -0.031468343
0001d0 e2 2f 43 3d 0b 32 6a 3b e8 c2 d6 bc 2b 19 44 3b
       0.047653086 0.0035735394 -0.026215985 0.0029922228
0001e0 9a 3a 50 bb e3 2f 12 3d 79 59 c6 3c 53 52 06 3d
       -0.003177321 0.0356902 0.024212586 0.032793354
0001f0 5d c9 b9 bc 0f d8 af bb dc c1 58 3d 22 ec ab 3c
       -0.022679025 -0.0053663324 0.052919254 0.02098662
000200 53 75 06 3d 33 4e 18 bd 49 40 37 bd bd c5 d2 bc
       0.032826733 -0.03718395 -0.04473904 -0.025729055
000210 09 06 85 bc cb 93 20 3b 93 3a 44 bb 6d cf 9a 3c
       -0.01623823 0.0024502154 -0.002994214 0.018897736
000220 9e ba 00 bd bb 90 fa bc 86 fa 16 3d e2 53 de 3c
       -0.031427972 -0.030586591 0.03686001 0.027139608
000230 eb c4 bd bc 0d 20 88 bc 3f 98 08 bd 9e 10 fc bc
       -0.023165187 -0.016616846 -0.03334832 -0.030769642
000240 c2 9c 97 3c 2c a2 f6 ba 3a ce d2 bc 27 84 d7 bc
       0.018507365 -0.0018816642 -0.025733102 -0.026308132
000250 d9 a3 f6 3b d6 d1 97 ba ea 32 00 3d 6e e0 28 3d
       0.0075268564 -0.0011582922 0.031298555 0.041229658
000260 1d b5 01 39 49 a2 c5 3c 18 2a 98 3b 52 bd 52 3d
       0.00012369869 0.024125235 0.00464369 0.05145008
000270 9e a4 b2 bc 55 e9 ba 3c 8e e6 ac b9 0c 4e 2b 3c
       -0.021807011 0.02281634 -0.00032978173 0.01045562
000280 16 3c 2a bd c5 e0 ea bc 4e b3 e1 bc bf 9b be bc
       -0.04156121 -0.028671632 -0.02755132 -0.023267625
000290 ac bf d7 bc 2a fc ec bc 0d 18 db bc f0 f6 3d 3c
       -0.026336513 -0.028928835 -0.026744867 0.011594519
0002a0 b1 64 c8 3c ea 1c c8 3c bd 04 d6 3b 05 ea d6 3c
       0.024462076 0.02442785 0.0065313266 0.026234636
0002b0 e8 f1 00 3c 40 14 ce bc 37 43 77 ba 86 ba 01 3d
       0.007870175 -0.02515614 -0.0009432318 0.031672023
0002c0 ae 5d aa 3c 48 2c e8 bc 77 31 81 bb 96 fc b4 3c
       0.020796623 -0.028341427 -0.0039426642 0.022093099
0002d0 2d 94 ed 3c 88 35 aa 3c 4c 49 12 3d 92 9b e3 3c
       0.02900132 0.020777479 0.035714433 0.027784143
0002e0 06 7c 1d 3d 98 f5 2c bd 5a a8 4a bb 51 d6 3e bc
       0.038448356 -0.042226404 -0.00309231 -0.011647777
0002f0 dd c1 d9 3c f6 eb 58 bc 49 f9 bf 3c 6c a3 bf bc
       0.026581699 -0.013239851 0.023434298 -0.023393355
000300 8e d5 43 3d cd 8a 34 3d b4 98 e0 ba 63 cc 2f 3d
       0.047811083 0.044077683 -0.0017135353 0.042919528
000310 27 09 10 bd 1d 56 22 3c 95 b2 cb ba dc 57 33 3d
       -0.03516498 0.009908226 -0.0015540892 0.04378496
000320 c2 5a 5b 3d 73 a9 ed 3c 18 ec 02 3d da 5f 03 3d
       0.05355335 0.029011464 0.031963438 0.032073833
000330 91 b3 23 3d f4 91 37 bc 05 f4 bf bc 0a 12 5e 3d
       0.03996617 -0.0112042315 -0.023431787 0.054216422
000340 2b 0f f5 bb ff e4 a4 3c d7 a8 1d 3c 48 3f 3a bd
       -0.007478615 0.020128725 0.009622774 -0.045470506
000350 e1 ee 10 bd e1 7e 28 bc 98 5c 21 bc bb 9b bb 3b
       -0.035384063 -0.010284157 -0.009848736 0.0057253516
000360 61 60 8e bb 9b 46 c6 3c e2 73 2c 3d 93 1e d9 3c
       -0.0043449854 0.02420359 0.042102702 0.026503837
000370 88 3f 11 3d 69 f8 41 bd a3 3f 1f bd a9 52 01 3d
       0.03546098 -0.047356043 -0.038879048 0.03157297
000380 21 99 7b 3c 00 43 09 bd d9 7a 40 3d f8 08 5b 3c
       0.015356333 -0.03351116 0.046992157 0.013368838
000390 a9 b5 de 39 e0 57 20 bd 1e 9d 05 bc 23 9c 35 bc
       0.00042478487 -0.039146304 -0.008155135 -0.011084589
0003a0 5d 62 e3 3c 52 28 51 3d 63 48 09 bd 6d 5c ed bc
       0.027756864 0.051063843 -0.0335163 -0.028974736
0003b0 d7 8a c1 bc 0d f6 f3 bc 00 bd 36 3b 1f 44 ad bc
       -0.023625774 -0.029780412 0.002788365 -0.021150647
0003c0 7a bb 02 bd 8d ec 80 3c 42 04 1c 3d 88 db 17 3d
       -0.031917073 0.015737796 0.038089998 0.037074596
0003d0 7f 42 80 3c c2 69 74 3b 60 e2 d2 3a b9 00 f2 3c
       0.015656708 0.0037294482 0.0016089194 0.02954136
0003e0 83 64 6b 3b e8 f8 cc bc c0 9b 15 3d c0 db da 3c
       0.0035918064 -0.025021031 0.036525488 0.026716113
0003f0 36 6b 36 bd a8 58 0e 3d 22 1b 8a 3c 1f 1e fc 39
       -0.044535838 0.034752518 0.016858641 0.00048087628

fc2.weight f4 [128, 256]
000000 13 77 d6 bc 3e ec 3d bd 0a 57 75 3c 4f bb 71 3d
       -0.026179826 -0.046367876 0.014974365 0.059016522
000010 4b b0 6a bd d3 45 29 3d 78 76 42 ba 00 b1 77 3c
       -0.057297032 0.041326355 -0.0007418166 0.015117884
000020 56 c9 6c bb 73 11 40 3d 78 42 25 bd 4f 93 1d 3d
       -0.0036130748 0.04689164 -0.040346593 0.038470563
000030 8a 08 6b bd 44 c0 98 3b ad 19 37 3d ab d4 6d bd
       -0.05738119 0.0046615917 0.04470222 -0.058064144
000040 a6 95 26 bd 37 2d 82 3d 83 29 72 bd 31 83 03 bd
       -0.04067006 0.0635628 -0.05912162 -0.032107536
000050 66 01 0c bd 23 73 d2 bb 0b 22 32 bd 8f 3d 32 3d
       -0.03418102 -0.006422417 -0.043489497 0.043515738
000060 63 74 d2 bb b2 5f 08 3d 96 c3 39 3d 30 e5 21 3d
       -0.006422566 0.033294387 0.04535254 0.03952521
000070 cc ac 79 3d 28 d9 89 3d 86 5f 9e 3d 36 5a 70 bd
       0.060955808 0.067308724 0.077330634 -0.05867978
000080 7b 9e 6a 3d 44 56 8e 3b d2 13 09 bd 4c d1 0e bb
       0.057280045 0.0043437798 -0.033466168 -0.002179223
000090 4e 1e 8d 3c b0 f2 2e bd 09 d2 80 3d 35 4e ed 3c
       0.017226364 -0.042711914 0.06290061 0.028967956
0000a0 da f5 1b 3c 14 82 19 3d a3 17 9a 3d 35 7f 4b 3d
       0.009519065 0.037477568 0.075240396 0.04968186
0000b0 3f 7f 77 3d a7 fc 60 bd fe 54 3d bd fb 8e 58 bd
       0.060424086 -0.054928448 -0.046223633 -0.05287073
0000c0 5a 77 3e 3d ca 90 30 3d a5 7f 9e bb 34 38 c3 3c
       0.04650054 0.04310683 -0.0048369938 0.02383051
0000d0 fa 9d 4f 3d f2 20 2f bd 90 ba 6e 3d fd 44 f4 bc
       0.050687768 -0.04275603 0.05828339 -0.029818052
0000e0 9f de 67 bd 3a 09 a2 ba 77 f1 8b 3d 87 61 d2 bc
       -0.056608792 -0.0012362369 0.06833165 -0.02568127
0000f0 75 34 4a bd da 5b b5 3c c5 1a 99 3d 6e 88 ed 3c
       -0.049366433 0.022138525 0.07475809 0.028995719
000100 e5 25 23 3c 6d 15 27 bb bc d9 1d bd 11 43 c1 bc
       0.009957765 -0.0025494948 -0.038537726 -0.02359155
000110 e0 3e 58 3c 26 94 f1 bc c2 ee 0d bd bf 7b 4b 3d
       0.013198584 -0.029489588 -0.034651525 0.04967856
000120 59 2c 48 3d 93 ad 3c 3c 24 40 f5 bc d3 2d 53 bc
       0.04887042 0.011515993 -0.029937811 -0.012889343
000130 7d 7b 91 bc 29 5d 63 bd f8 8f 5a bd 87 5a 90 3c
       -0.01775908 -0.055508766 -0.053359956 0.017621292
000140 e9 c7 00 bd d1 17 1e bd 97 1a 33 3a 5b 7e 4c bd
       -0.03144065 -0.03859693 0.00068322703 -0.04992519
000150 bc b1 9a bd 88 62 f8 3c d0 e0 38 3d cf f1 9f b9
       -0.075534314 0.03032042 0.045136273 -0.00030507005
000160 37 5f ee bc d8 4f 2c 3d fc e2 63 bc 00 bf 5d 3d
       -0.029098136 0.042068332 -0.013909098 0.05413723
000170 af 05 73 3c 93 21 fd bc 06 68 40 bd 97 ff 6e 3d
       0.014832898 -0.030899798 -0.046974204 0.05834922
000180 5b 5e ea bb 4f 91 c8 3c 68 75 26 bd 45 d2 39 bd
       -0.0071523613 0.024483351 -0.04063931 -0.045366544
000190 95 3c 16 3d df 77 40 3d ec 9b 0f bd 55 47 1f 3d
       0.03667887 0.046989318 -0.035060808 0.038886387
0001a0 9a f1 e0 bc 56 1f ba ba 70 d6 3a 3d 8a 10 68 39
       -0.027458955 -0.0014200013 0.04561466 0.00022131405
0001b0 e7 6e 04 bc d2 aa 68 3d c8 58 ca 3c 75 dd 5f bd
       -0.008083082 0.056803532 0.024700537 -0.054654557
0001c0 e0 cc 73 3c 90 5e 95 3d 5e 4c c3 3b 87 0d ff bc
       0.014880389 0.07293427 0.0059600314 -0.03113438
0001d0 5d b8 3a 3d 3f b9 23 bd 28 37 97 3d c4 ca 2f bd
       0.04558598 -0.039971586 0.07383567 -0.04291798
0001e0 bc e0 28 bd eb fa 82 3c ac 8c b7 bc 7f 34 b1 3c
       -0.04122995 0.015988788 -0.022405945 0.021631477
0001f0 ec 35 1a 3b 74 cd 50 3d db 81 1f bd 3e d2 26 3d
       0.0023530675 0.050977185 -0.0389422 0.040727846
000200 43 0f 06 3d 0b 75 e1 bc 8a 6f f5 3b e5 54 ba bc
       0.0327294 -0.02752163 0.007490103 -0.022745559
000210 d5 ab 37 3d 14 77 1e bd 8f 23 ee 3b df 66 5d bd
       0.044841606 -0.03868778 0.0072674225 -0.054053184
000220 af 57 da bc bb e6 32 3c 8e 95 2a bc 4d 60 17 3d
       -0.026653139 0.010919268 -0.010411633 0.036957074
000230 cf 25 1c bd 24 a7 17 3d 52 4a e3 3c 59 78 77 3d
       -0.038121995 0.037024632 0.0277454 0.060417507
000240 61 bd 61 bd 7a 72 55 bc 3b dc 82 3d 43 67 80 bd
       -0.055112246 -0.013027782 0.06389662 -0.062696956
000250 6a ad ee bc b5 35 8b bc 30 4e 68 bd 6a ed a7 bc
       -0.029135425 -0.016993383 -0.05671519 -0.02049895
000260 79 37 19 3d 25 7f 8c 3d 57 58 0a bd fc b3 3b bd
       0.03740642 0.068601884 -0.033775654 -0.045825943
000270 e9 7b 2a 3d 07 89 b8 bb 5b 3c 7d 38 db 7c ad 3b
       0.041622076 -0.0056315693 6.037611e-05 0.005294425
000280 2f 70 b0 bc 35 36 18 bb ce 60 48 bd 6c 77 66 3d
       -0.021537868 -0.002322567 -0.048920445 0.056266233
000290 ee 05 39 bd 62 a4 20 bd 4a b6 bd bc 10 30 f0 bc
       -0.04517167 -0.039219268 -0.023158211 -0.029319793
0002a0 dc 68 2d 3d 92 97 02 bd 4c 0f 54 3d 37 92 0c 3d
       0.04233633 -0.03188283 0.0517724 0.03431913
0002b0 bf bf b9 bc d2 3c 5d 3c e6 ca fe 3c 95 fd 92 3c
       -0.02267444 0.01350327 0.031102609 0.017943183
0002c0 a7 2b be ba cc 2d 89 3d 7c a0 6f 3a 51 d8 ec bb
       -0.0014508859 0.06698188 0.00091410405 -0.0072279354
0002d0 20 15 91 bc f1 38 0a 3d 44 78 98 3c 1b 96 e5 bc
       -0.017710268 0.03374571 0.018612035 -0.028025677
0002e0 2e ff 0c bd 50 f9 53 3d 7b 99 12 bc 6c 32 3b bd
       -0.034423046 0.051751435 -0.008947725 -0.045702383
0002f0 60 78 51 3d 86 0e 54 3d fe fd 0e bc 1e 82 a6 bb
       0.05114019 0.051771663 -0.008727549 -0.005081429
000300 88 b3 3a bd da ca 74 ba 66 1b 12 3d 5e c9 91 3c
       -0.04558137 -0.00093380886 0.03567066 0.017796215
000310 10 d6 41 bd 52 de d2 3c d6 5b bc bc f7 70 a2 3d
       -0.047323287 0.025740776 -0.02299301 0.079317026
000320 16 52 76 bd f7 f2 6e 3d f3 35 23 3d 67 b4 ac 3c
       -0.060136877 0.058337178 0.03984637 0.021082116
000330 fc 94 64 3d 4c 80 ab 3c 54 98 98 3b e8 bc 68 bd
       0.055806145 0.0209352 0.004656831 -0.05682078
000340 4c d3 aa bc 0c 7e 4d 3d 97 54 f8 b9 5e 59 19 3d
       -0.020852707 0.050169036 -0.0004736527 0.037438743
000350 96 b6 27 bd 1e e5 10 bd 83 25 5b 3d c9 b7 05 bb
       -0.040945612 -0.035374753 0.05350257 -0.0020403734
000360 ec cd 38 bd 3b d7 33 3d 10 82 31 bd be e9 89 ba
       -0.045118257 0.04390643 -0.043336928 -0.0010521931
000370 6d 94 d8 3b 6c fa 59 bd 29 cb 05 bd 72 51 4c bd
       0.0066094906 -0.053217337 -0.03266445 -0.04988236
000380 9f 55 32 bd 50 ad 85 bc 30 78 f0 bb ba 20 7a 3d
       -0.043538686 -0.016317993 -0.007338546 0.061066367
000390 42 27 fa bc 3f 08 a8 ba 86 9c 45 bc 48 96 dc 3c
       -0.030536298 -0.001281984 -0.012061244 0.026927128
0003a0 4f 14 4a 3c 5f 67 9c bc a1 cd 6c bc 63 9b 19 3c
       0.0123339435 -0.01909226 -0.014453323 0.009375426
0003b0 02 28 08 bd 45 55 47 3d 42 26 40 bd 8c 37 25 3b
       -0.03324128 0.048665304 -0.046911485 0.002521011
0003c0 c3 29 d5 3b 4f cd 02 3d f6 31 ae bc 13 5e 36 bc
       0.0065052225 0.03193408 -0.021264058 -0.0111308275
0003d0 0f 26 a8 bb 66 93 3e 3b 57 be 55 bd d2 bb 45 3d
       -0.00513149 0.0029079556 -0.052183475 0.048274823
0003e0 b3 a6 da 3b 4a 46 56 3d 2c 60 a7 3c d1 6a 43 bd
       0.006672704 0.052313127 0.0204316 -0.04770929
0003f0 95 bd 6f bd 94 3d 0e 3d b0 c0 23 3d 2f b1 78 bd
       -0.05853041 0.034726694 0.039978683 -0.06071585

fc2.bias f4 [128]
000000 95 ea 5f bd ba 9b 83 bd 9d a3 90 3d 88 7f 98 3d
       -0.054667074 -0.06426187 0.07062457 0.074462
000010 10 04 cc 3d 67 db 82 bd c5 35 94 bd df 76 e9 3c
       0.09961712 -0.06389504 -0.07236818 0.028499065
000020 b1 48 c3 3a 66 b4 76 3d 59 a2 62 bc c5 2a ef bc
       0.0014898983 0.060230635 -0.013832652 -0.029195199
000030 b7 d8 08 3c 0b 8a bb 3c 97 0a 9a 3c 50 94 53 3c
       0.00835245 0.022892972 0.018803878 0.012913778
000040 f4 57 85 3d 63 dd a4 bb e2 f4 27 3d f9 96 89 bb
       0.06510916 -0.005031274 0.041005023 -0.0041989055
000050 d5 cd 83 bb fc 65 be bc 82 26 8b 3d 67 df 13 bd
       -0.00402234 -0.02324199 0.06794454 -0.036101725
000060 37 4a 11 bd c3 b1 a2 3d 95 af 4e bc fe f4 64 bd
       -0.035471167 0.079440616 -0.012615104 -0.055897705
000070 2a ac 39 bd 9e a1 af 3b 8b 24 54 3d ba d7 bf 3b
       -0.045330204 0.0053598424 0.051792663 0.005854574
000080 0e ea 1e 3d 13 0b 76 b9 07 10 c9 bc 1a 9c 53 bd
       0.03879743 -0.00023464514 -0.024543775 -0.051662542
000090 e6 22 72 bd d9 5a 14 3d 06 ef 14 3c 6a 29 35 3d
       -0.059115313 0.03621945 0.009090191 0.04422895
0000a0 73 f6 cb bb 23 03 0a 3d b5 8c 6f 3d c3 a7 c1 3c
       -0.0062244474 0.033694398 0.058483798 0.023639565
0000b0 7e 7a 0e bd 4a 39 e3 bc 63 1c 77 3d 8e 43 65 3d
       -0.034784786 -0.027737278 0.060329806 0.05597263
0000c0 0a 5f 07 3d b0 f0 2b bd 5e 4a 98 bc 3b c4 56 bd
       0.03304962 -0.041977584 -0.018590149 -0.052433234
0000d0 26 d0 e9 bc dc 57 a3 bc 1e f5 5b 3d c5 29 7d bd
       -0.028541636 -0.019939356 0.05370056 -0.061807413
0000e0 f0 c3 97 3c 53 d6 61 bd 41 ce 84 3d b0 fd 18 3c
       0.018526047 -0.055136036 0.06484652 0.009337828
0000f0 0b 66 23 bd 6f 14 4f bd 69 f0 97 3b b7 68 ff 3c
       -0.039892238 -0.050556596 0.0046368134 0.031177862
000100 0b 80 2b 3d eb 76 f3 bc 42 20 b1 bb 2f 61 15 3d
       0.04187016 -0.02971979 -0.0054054568 0.036469635
000110 f3 09 bc 3b 45 af 3a bd bb 5e 82 3d 09 96 04 bd
       0.0057384907 -0.045577306 0.06365725 -0.032369647
000120 63 0e 72 3d 19 7f b9 bc 1b 02 86 bc bd 49 20 3d
       0.05909575 -0.022643613 -0.016358426 0.039132822
000130 48 b5 55 3d 9c ea fb bc b9 4c aa 3d 8c 3c 02 3c
       0.052174836 -0.030751519 0.08315415 0.007949006
000140 36 fd 12 3d 14 bc 9e 3c 70 00 59 bd 02 a1 24 bd
       0.035886012 0.019376792 -0.052978933 -0.04019261
000150 83 b6 f3 bb 71 19 eb bc 8b 98 d7 3c 61 45 20 3d
       -0.0074375286 -0.028698655 0.026317855 0.039128665
000160 1e 61 f1 bb 43 c5 76 3d 35 71 f5 bc 82 60 62 3d
       -0.0073663136 0.060246717 -0.029961208 0.05526782
000170 98 2e f1 bc 5a c1 76 3c 4e a1 e4 bc 33 19 cd bc
       -0.029441163 0.015060747 -0.027908947 -0.02503643
000180 7d 23 15 3d b3 0f 7d 3d db 66 50 3d bd 0e 1b bd
       0.036410797 0.06178255 0.05087934 -0.037855852
000190 26 5d 07 bc 3a 53 6d bd ab 28 41 bc ca 8f fd 3c
       -0.008261954 -0.0579407 -0.011789481 0.030952353
0001a0 21 72 90 3b ee 06 96 bd 7d bf 0e bd ad a5 d5 bb
       0.0044081365 -0.073255405 -0.034850586 -0.006519994
0001b0 b8 ab 90 3d 00 62 9c bd ef 42 0c 3d 94 46 df bc
       0.07064003 -0.076358795 0.03424352 -0.027255334
0001c0 83 56 8b 3b c3 ba 21 3c 51 f9 26 3d be f0 d0 bc
       0.0042522564 0.009871188 0.04076511 -0.02550542
0001d0 a6 2f 93 bc b6 4b 28 3d 21 7c 34 3d b7 d7 e5 3b
       -0.017967056 0.04108783 0.04406369 0.0070142406
0001e0 4a 89 e6 3c e9 86 c5 bc 5a 0a 8f 3d b1 56 05 bd
       0.028141636 -0.024112182 0.06984396 -0.03255338
0001f0 a0 ea 1f bd 96 b3 f8 bc 50 fe b6 bc be 1b 82 3d
       -0.039042115 -0.03035907 -0.022338063 0.06352948

fc3.weight f4 [44, 128]
000000 63 c5 c4 bc 79 bd ef bd 89 43 dd 3d 72 3f a9 3c
       -0.024019903 -0.11706061 0.10803897 0.020660136
000010 5a af 2b 3d f7 e2 d6 bd f4 f6 d6 3c 3e 73 eb 3b
       0.041915275 -0.10492509 0.026240803 0.007185369
000020 2c 56 e8 3c 38 90 85 bd b0 28 90 3d 28 16 e7 bc
       0.028361402 -0.06521648 0.070390105 -0.028208807
000030 ed 56 58 bd bc f3 92 bc 21 47 c1 bd 9e 60 eb 3c
       -0.052817274 -0.017938487 -0.09437395 0.028732594
000040 a7 e9 f2 3d 7a 98 11 3e a1 01 08 3e 0b aa d7 bd
       0.11860972 0.14218321 0.13281871 -0.1053048
000050 ab 3b 85 3c 3b 0f 42 3b cf 97 01 be bc 3b 1d bc
       0.016263803 0.002961113 -0.12655567 -0.009596761
000060 ce a8 62 3c 32 3a d3 3d a3 a0 b8 3d 4c 9d 01 bd
       0.0138341915 0.10313834 0.09015014 -0.03164415
000070 12 5a 09 be be c7 dd bd 4d 01 98 bb 4e 39 47 bd
       -0.13413265 -0.108291134 -0.004638827 -0.048638634
000080 16 f1 b7 3d 30 85 e5 bc fa d2 f3 bc c5 cd 01 bc
       0.0898153 -0.02801761 -0.029763687 -0.007922594
000090 76 60 46 be b3 d0 a6 bd 1d 1b 28 3e f9 2b 91 3c
       -0.19372734 -0.08145275 0.16416593 0.017721163
0000a0 20 d1 ae bc 6b 80 a3 bc 6b 9b 76 bb 25 20 8d 3d
       -0.021339953 -0.019958695 -0.0037629257 0.06890897
0000b0 4e 49 95 bd 47 38 10 be a4 fa 32 3e 71 79 85 3c
       -0.072893724 -0.14083968 0.17478424 0.01629326
0000c0 12 ad a8 3d c3 83 17 bc d8 ae 00 bc 26 36 91 3d
       0.082361355 -0.009247723 -0.007854186 0.07090406
0000d0 8a 65 dc 3d ff c6 71 3d 3e ea 15 be 9c 34 83 3c
       0.107615545 0.059027668 -0.14640138 0.016016297
0000e0 a7 d8 8f bd f8 ab a1 bd 7b f0 82 3d 1e ca a2 bb
       -0.07023745 -0.078941286 0.06393524 -0.004967942
0000f0 7e bf c1 bd a1 c8 ba bc ad 24 9a bd de 9e a7 bd
       -0.09460352 -0.022800745 -0.075265266 -0.081845984
000100 13 d9 a5 bd b0 5e 87 3d 87 7e c6 bd 61 98 cf 3d
       -0.08098044 0.06609857 -0.09692102 0.10136486
000110 b5 9d b1 bd 0e 28 07 3c 2b ac a7 bc ec c1 61 bd
       -0.08672658 0.008249296 -0.020467838 -0.05511658
000120 8d ea ac bd 96 f9 44 3e 4d bf c8 3d 4a 5f 8d bd
       -0.084431745 0.19235834 0.09802113 -0.069029406
000130 06 11 ff 3d b8 6f 1c bd 5a 43 27 bc 8c 80 4a bd
       0.12454419 -0.03819248 -0.010208929 -0.049438998
000140 65 9d 8f 3e 74 3e 1d be 2b 74 b1 bc 2f 74 c5 bd
       0.2804977 -0.15355855 -0.021661839 -0.09641301
000150 5e 66 f4 bb b1 c3 ff bd b3 65 3c 3d d3 4d 1d be
       -0.007458492 -0.12488497 0.045995425 -0.15361719
000160 67 3e 28 3c 60 9f 7d bd 4e 0c 45 3e f6 0b d0 bc
       0.010268784 -0.06191957 0.19242975 -0.025396328
000170 e1 b9 9d 3c 7b 6a 1f bd 36 f7 15 3d 16 c8 c2 3d
       0.019253673 -0.038919907 0.03661271 0.095108196
000180 7e 16 2a bc f8 2a 75 3e 86 f1 27 bd e4 be 1d 3d
       -0.010381339 0.23942173 -0.04100182 0.038512126
000190 30 7f aa bc 83 d2 b4 3d fd 1f cf 3c 84 e5 73 bd
       -0.0208126 0.088292144 0.025283808 -0.059545055
0001a0 92 b7 9f 3d 6f 64 99 bc 30 53 b8 bc 2e c6 07 3c
       0.07798685 -0.018724648 -0.022500604 0.008286996
0001b0 e8 dd d4 bc d6 0e 8a bb 59 ee 85 3d b1 2a a3 bd
       -0.02598472 -0.0042131944 0.06539602 -0.07967127
0001c0 9f 3f 16 bd 74 d7 e5 bd ef 3a af bd e2 b2 d6 3d
       -0.036681768 -0.11222735 -0.085561626 0.10483338
0001d0 2a 2f 96 3d 6b 16 ae 3d a7 50 c6 bc 26 5d aa 3d
       0.073332146 0.0850037 -0.02420838 0.08318548
0001e0 cb 76 8b 3c 5f 88 ab 3d d9 05 59 3c 69 1d 8f 3d
       0.017024418 0.0837562 0.013246023 0.069880314
0001f0 16 e6 0e be 97 ca 43 bd 34 88 6b bb 31 2c 52 3b
       -0.13954958 -0.047800627 -0.0035939338 0.0032069797
000200 56 5f 24 3d 0b d9 21 bd 36 49 aa 3d 7f 67 c0 3d
       0.040129982 -0.03951363 0.08314745 0.0939474
000210 dc f3 8e bd 72 fc 94 3d 55 8c df bd 6d 31 3b 3d
       -0.06980106 0.072747126 -0.10915438 0.045701433
000220 c5 fd 4d bc 97 05 43 bd 01 d8 98 bb f4 43 e5 bd
       -0.01257271 -0.047612753 -0.0046644215 -0.11194602
000230 28 bd 56 bc f5 ba 22 3c 1c 45 d5 3d 5d 14 c0 3c
       -0.013106622 0.009932269 0.10413572 0.02344721
000240 c0 56 f9 bc 02 db a8 3d 40 2e 7b bd a3 97 de 3d
       -0.030436873 0.082448974 -0.061323404 0.10868766
000250 1c 1e 03 3c 7e 37 9c 3a ab 43 f6 3d bd e5 aa 3a
       0.008002784 0.0011918393 0.120246254 0.0013038438
000260 f2 58 a6 3b 4e 8f 1d bd ee 76 0a 3e db 30 5b bd
       0.005076521 -0.038466744 0.1352193 -0.05351339
000270 da 71 78 3c a9 c8 0d bd 63 5a 69 bd eb a7 8e 3c
       0.015163863 -0.034615193 -0.056970965 0.017414054
000280 1c af 0c 3e 0c 42 fa 3b 9c b7 cd 3c 0e 36 e8 3d
       0.13738674 0.007637268 0.025111966 0.11338435
000290 ec 65 46 bd db 2c e7 3d d3 f0 3c 3e 4d 8e dc bd
       -0.048437044 0.112878524 0.18451242 -0.10769329
0002a0 bd 07 47 bd d9 ef 95 3d ae 9f 21 bd 11 bc a6 bd
       -0.048591364 0.07321138 -0.039458923 -0.081413396
0002b0 9f 92 3c bb e0 df 8f 3d e1 cf 85 3d a6 f2 0c bd
       -0.0028773916 0.07025123 0.065337904 -0.034411095
0002c0 26 e5 c9 ba 6e 02 d2 3d e9 1d 33 3d 9a 04 b7 3c
       -0.0015403375 0.1025437 0.043729696 0.022341061
0002d0 15 5e bb 3d 69 fd 28 bc d3 96 1d bd 9f 6f 2a 3d
       0.09148804 -0.010314324 -0.038473915 0.041610356
0002e0 8a 0e b1 bd b6 c1 ea 3a e9 ce 60 3d 93 e3 9b bc
       -0.08645351 0.0017910514 0.054884825 -0.019029414
0002f0 9a c7 f6 3d 48 97 01 bd e7 53 54 3d dd 95 45 3d
       0.1204979 -0.031638414 0.051837828 0.048238624
000300 f0 d3 d9 bb 8f 94 96 3d 75 c3 59 bd 44 71 8f 3d
       -0.0066475794 0.07352554 -0.053164918 0.070040256
000310 95 3e 0c 3e 3c 04 c1 3c dc 50 87 bd 0b 9f 62 bd
       0.13695748 0.02356159 -0.066072196 -0.055327456
000320 82 d0 9d ba 87 2a aa 3d 30 e8 88 bd 29 b9 36 3d
       -0.001204029 0.08308893 -0.06684911 0.044610176
000330 27 c2 7f 3c 31 ce fa bd 20 49 9f bc 2f de 31 3c
       0.015610254 -0.12246359 -0.019444048 0.010856195
000340 e4 aa f1 3c 3a 56 44 bd ba 2c 0b bd 04 4c 92 bd
       0.029500432 -0.047933795 -0.0339782 -0.07143405
000350 ff a6 2b bd e0 76 5f 3c 59 f0 0b 3d 0a 76 13 3e
       -0.041907307 0.013639182 0.03416476 0.14400497
000360 bc 2d 1b bc dc 3c c6 3d 76 60 d1 bd 87 c8 19 3c
       -0.009471353 0.09679577 -0.102234766 0.009386188
000370 20 d7 ed 3c 82 86 40 bd a6 52 7a 3c cf 18 73 3c
       0.029033244 -0.047003277 0.015278494 0.014837458
000380 a7 e9 06 3d 2b 7c bb 3d a1 6a f3 3c 0a c9 bf bb
       0.032937672 0.091545425 0.02971393 -0.005852823
000390 c4 97 a0 3c 56 0c 33 3d 78 56 6a bc e8 23 bb 3c
       0.019603617 0.043712936 -0.014302842 0.02284427
0003a0 65 f8 ae 3c 74 a4 01 3d f2 04 2c bd f2 7a e3 3c
       0.021358678 0.031650975 -0.041996904 0.027768586
0003b0 b2 14 86 3c 38 16 49 3c 16 f2 24 bd 41 5a 32 bc
       0.01636729 0.012273364 -0.040269934 -0.010885776
0003c0 c2 47 b3 bc 9e bf a0 3d 3b 99 71 3c d0 04 03 be
       -0.021884803 0.07849048 0.014746006 -0.12794805
0003d0 52 3c 92 bd c1 07 9f 3c 6c cf 9e 3c ec ec 87 3d
       -0.071404114 0.019412877 0.019386016 0.06636986
0003e0 73 dc f6 bd 66 aa 53 3a 9d 0f 83 3d 00 3e e7 bb
       -0.12053766 0.00080744026 0.06399462 -0.0070569515
0003f0 ad b5 96 3c 2d a2 d6 bc ea e5 5f bd f4 77 5d bc
       0.018397177 -0.026200378 -0.054662623 -0.013517369

fc3.bias f4 [44]
000000 d4 59 00 3e 79 ae 8b 3d 18 62 be 3d 65 db cb 3d
       0.12534267 0.068203874 0.09296054 0.099539556
000010 1d 4f 3e bd 1c 42 c4 3d 9e af 89 3c c0 6f 55 bd
       -0.046462167 0.09582922 0.016807374 -0.052108526
000020 06 97 42 bd 3a dc dd 3d bf bd c8 bd 0b 7e 38 3d
       -0.04750731 0.108330205 -0.09801816 0.04504208
000030 8b d7 c5 bd 29 8b ad bd bc fb c2 bc 69 08 93 3d
       -0.09660252 -0.08473808 -0.023801677 0.071793385
000040 09 62 3d bd 7d 36 14 3d c6 8a 25 bd 9d 72 c1 bd
       -0.04623607 0.036184777 -0.040415548 -0.09445689
000050 32 95 ac 3d a2 de 37 3e 2c 02 65 3d 30 3d af 39
       0.08426894 0.17956021 0.055910274 0.0003342419
000060 2c 5e 89 3d a1 69 85 bb f1 64 49 bc e5 94 b6 3c
       0.06707415 -0.00407143 -0.012292133 0.022287795
000070 73 c5 bd bd ff 41 1e bd fa 7a a9 bd 94 85 16 3b
       -0.09266176 -0.038637158 -0.08275409 0.0022967802
000080 32 c8 8f 3d ba 42 1f 3c b7 83 8a bc b5 ed 32 bd
       0.07020606 0.009720499 -0.01690851 -0.043683726
000090 1d 14 83 3b 8b 63 e4 3d 9f 7b b1 bc 14 ce 14 3d
       0.0040002004 0.11151799 -0.021665392 0.036329344
0000a0 32 5f 0e be 98 26 35 be 4a 44 18 bd bf 10 e4 3c
       -0.13903502 -0.17690504 -0.0371745 0.027840016
