src/python/saved_models/model_S_MLP_resnet18_15epochs_Cropped1.pt (torch, 681495 bytes, 6 tensors)

fc1.weight f4 [256, 512]
-0.0357318 -0.040895298 -0.034529027 0.020918967 -0.028239433 0.04164588 0.029890317 -0.033147175
-0.022575172 -0.024448877 -0.045144696 0.005283905 0.04186794 -0.04506181 0.0041291774 0.0122391805
0.010555896 0.015964882 0.026268955 0.02868403 0.010491269 -0.011593182 0.05354409 -0.05125852
-0.03514677 -0.0009883569 0.029817594 0.026801007 0.015661689 0.027216995 0.032583237 -0.008517544
0.026518216 -0.00758348 0.007966153 -0.0013977153 0.010907358 -0.00033848273 0.053935837 -0.020967098
0.012259694 0.02780882 0.013753558 0.0027438733 -0.060043305 0.046107687 0.0009365251 -0.0147219
-0.0022536472 -0.004274927 -0.036527704 0.012233336 0.024639027 0.034233183 0.002368801 0.011786193
0.03376486 -0.03198559 -0.008952772 0.022755284 0.04551716 0.011546917 -0.02365588 0.034602743
-0.0042740293 -0.0060415315 0.044560917 -0.025347589 0.042006217 0.023329852 -0.028949808 -0.00795817
0.0030140996 -0.015294313 -0.030952035 0.016616866 0.005985876 -0.04170321 0.0046917135 0.019292735
0.055014633 0.012244677 0.0002304492 0.013277898 0.012630379 0.020606445 -0.019162111 0.0013952496
0.0183105 0.040963992 -0.05401652 0.037219804 -0.01513038 0.012755285 -0.013461183 -0.0030731512
0.016382162 0.018846389 -0.014349809 -0.006488426 0.017104713 0.0032820015 0.034919683 -0.021817321
-0.03654122 0.00844969 -0.004142327 -0.03842798 -0.04160991 0.003954779 0.0058197607 -0.008893484
-0.014928082 -0.032242097 -0.010892089 -0.019297918 -0.038034916 -0.017102746 0.009277986 -0.0369453
-0.039028466 0.010278543 0.005404695 -0.020714153 -0.043440018 -0.0029743512 0.040670846 0.035987563
0.0034752581 -0.018266218 -0.042060714 -0.0392343 -0.006455924 -0.010685487 -0.0003436864 0.00091009174
-0.052896462 0.028232722 0.037110407 0.009976969 -0.011047075 -0.024052778 0.027389877 -0.054285917
0.027611922 0.0066722524 -0.027890146 -0.034477323 0.02254565 0.046279017 0.02619084 0.048246443
0.0326674 -0.015132697 -0.006706369 0.019669672 0.036480587 0.037680537 0.022082852 0.066832155
-0.0013845022 -0.057052117 -0.040974133 0.031441852 0.025723998 0.0004492254 -0.01769855 0.003986958
-0.01826449 -0.020738186 -0.01895562 0.0010322706 -0.0379322 0.008740032 -0.014654434 -0.019831592
0.017802851 -0.0026652038 0.04190455 0.046493 -0.038560808 -0.0050402246 0.013952853 0.0126969265
0.018259736 0.034327768 0.05271031 0.026914299 -0.024027335 0.011555101 0.010644727 0.06277952
-0.058693487 -0.015795663 0.02543462 0.03036823 0.04435365 0.012183669 -0.026521543 -0.03201651
-0.01796822 0.042179972 0.018186966 -0.024198016 0.011511217 -0.02441891 -0.0007418859 0.04530612
-0.039805945 0.034495533 0.0009006489 -0.013061399 0.024578191 0.06274304 -0.025930217 0.0030329097
0.018028772 -0.040426064 -0.011469859 0.025234113 0.06479482 0.01096915 -0.00012233335 0.038508248
0.05130481 0.016609589 -0.04068261 -0.020324446 -0.011997198 -0.03746043 0.043553352 0.021667544
0.017976206 0.014847248 0.025339693 -0.020353941 -0.0036108498 0.0019953395 -0.05769322 -0.0149271265
0.0074384175 -0.0054789847 0.021738406 -0.034457266 -0.03191855 -0.044462908 0.0007194675 0.013570064
-0.034575783 0.028182136 0.004282827 0.02188998 -0.0024490363 0.03072599 -0.00032556814 -0.0014037244
00000000: 825b 12bd d481 27bd 4f6e 0dbd 415e ab3c
00000010: 6256 e7bc df94 2a3d 8adc f43c 55c5 07bd
00000020: 91ef b8bc 0349 c8bc a5e9 38bd 9c24 ad3b
00000030: b87d 2b3d bc92 38bd 0d4e 873b d886 483c
00000040: a3f2 2c3c c9c8 823c fe31 d73c c5fa ea3c
00000050: 92e3 2b3c 54f1 3dbc 0c51 5b3d 74f4 51bd
00000060: 0ff6 0fbd c18b 81ba 0744 f43c c98d db3c
00000070: f14c 803c 2df6 de3c 0076 053d 2b8d 0bbc
00000080: bb3c d93c d77e f8bb 7884 023c 8b33 b7ba
00000090: c6b4 323c 6276 b1b9 d3eb 5c3d 31c3 abbc
000000a0: e2dc 483c 53cf e33c 9a56 613c 8ed2 333b
000000b0: f8ef 75bd 6adb 3c3d 2381 753a 2034 71bc
000000c0: edb1 13bb b014 8cbb 139e 15bd 556e 483c
000000d0: c9d7 c93c 1838 0c3d e33d 1b3b e01a 413c
000000e0: 064d 0a3d 5203 03bd a6ae 12bc 4a69 ba3c
000000f0: 3470 3a3d 482f 3d3c fac9 c1bc 9bbb 0d3d
00000100: 280d 8cbb 0af8 c5bb 8285 363d bfa5 cfbc
00000110: b60e 2c3d 3f1e bf3c 2628 edbc fc62 02bc
00000120: 3388 453b 0095 7abc 1f8f fdbc 1820 883c
00000130: 2b25 c43b fcd0 2abd f2bc 993b cc0b 9e3c
00000140: 0657 613d e69d 483c bca4 7139 8a8b 593c
00000150: a6ef 4e3c d9ce a83c dcf9 9cbc cfe0 b63a
00000160: e7ff 953c dcc9 273d 6d40 5dbd cb73 183d
00000170: 6ae5 77bc 8bfb 503c 4b8c 5cbc ec66 49bb
00000180: e233 863c be63 9a3c 761b 6bbc dd9c d4bb
00000190: 2f1f 8c3c d916 573b f107 0f3d 3dba b2bc
000001a0: 3fac 15bd 9270 0a3c 5bbc 87bb a866 1dbd
000001b0: 276f 2abd 1797 813b b1b3 be3b fab5 11bc
000001c0: ea94 74bc 4a10 04bd bc74 32bc ab16 9ebc
000001d0: 80ca 1bbd 0f1b 8cbc b202 183c f453 17bd
000001e0: 50dc 1fbd 5667 283c de19 b13b bab0 a9bc
000001f0: 29ee 31bd 55ed 42bb 7996 263d b267 133d
00000200: 28c1 633b 09a3 95bc db47 2cbd 25b4 20bd
00000210: 378c d3bb 2e12 2fbc cf30 b4b9 3993 6e3a
00000220: f6a9 58bd 4f48 e73c 1501 183d 7176 233c
00000230: cafe 34bc 550a c5bc bc60 e03c e95a 5ebd
00000240: 6632 e23c e9a2 da3b e079 e4bc 1838 0dbd
00000250: a8b1 b83c 118f 3d3d 2c8e d63c 109e 453d
00000260: 40ce 053d 22ef 77bc 1ac1 dbbb 4b22 a13c
00000270: ab6c 153d e856 1a3d 19e7 b43c 4cdf 883d
00000280: 2f78 b5ba 7baf 69bd 7ed4 27bd 2cc9 003d
00000290: 22bb d23c 0386 eb39 8dfc 90bc 07a5 823b
000002a0: 699f 95bc 21e3 a9bc d148 9bbc 414d 873a
000002b0: cb5e 1bbd 5a32 0f3c 2719 70bc dd75 a2bc
000002c0: 49d7 913c b3aa 2ebb 1ba4 2b3d 726f 3e3d
000002d0: f0f1 1dbd 7828 a5bb 829a 643c c506 503c
000002e0: 7195 953c 469b 0c3d c4e6 573d 607b dc3c
000002f0: f9d4 c4bc 9b51 3d3c 3967 2e3c 8d92 803d
00000300: 9568 70bd e865 81bc 445c d03c cbc6 f83c
00000310: 2cac 353d 039e 473c b543 d9bc be23 03bd
00000320: 1732 93bc e8c4 2c3d d5fc 943c eb3a c6bc
00000330: 8b99 3c3c 2a0a c8bc 1f7b 42ba e992 393d
00000340: 8f0b 23bd 304b 0d3d 8619 6c3a 7aff 55bc
00000350: 3458 c93c 6c7f 803d 9b6b d4bc c8c3 463b
00000360: 13b1 933c cd95 25bd 13ec 3bbc c5b7 ce3c
00000370: 26b3 843d f3b7 333c 9c46 00b9 d3ba 1d3d
00000380: fe24 523d d510 883c cfa2 26bd 747f a6bc
00000390: e58f 44bc 1c70 19bd 0065 323d 2280 b13c
000003a0: d642 933c df41 733c 3095 cf3c 4fbd a6bc
000003b0: 02a4 6cbb 3ec4 023b ba4f 6cbd e890 74bc
000003c0: f8bd f33b 0e89 b3bb be14 b23c 1023 0dbd
000003d0: 07bd 02bd bd1e 36bd a69a 3c3a f954 5e3c
000003e0: 569f 0dbd 39de e63c f556 8c3b 9e52 b33c
000003f0: 0380 20bb 12b5 fb3c 04b1 aab9 2dfd b7ba

fc1.bias f4 [256]
-0.015924042 0.030972978 -0.017490732 0.0014916976 -0.029611696 0.039073586 0.019845236 -0.0064999443
0.049831998 -0.0021741327 0.008520424 0.04461599 -0.024012893 0.0042286473 0.025410073 -0.02627471
-0.017661966 -0.015245424 0.035584513 -0.030309442 0.036276862 0.014431845 0.015614332 0.019971201
0.03112544 0.015992695 -0.0039541335 0.024936197 0.006640386 -0.02895716 -0.0054312474 -0.002095705
-0.008244527 -0.018054146 -0.014718831 0.021679476 0.01309441 0.058561113 0.033391017 -0.0010075702
-0.029874928 -0.03602937 0.035461567 -0.020072984 0.016192066 0.0387327 -0.0235576 -0.042477485
0.0074916272 0.01191799 0.01740528 -0.02133853 -0.03791486 -0.0033227839 0.022030056 -0.010361954
-0.041265424 0.026927192 -0.039660994 0.023665786 0.0055428008 -0.0041062487 0.023595614 0.005405144
-0.020027755 -0.025175005 -0.040087495 0.013082412 -0.013256615 0.031933803 0.0077594873 -0.03478377
0.039601658 0.039724294 0.012743089 0.02658529 0.041676424 0.016892998 0.022139272 -0.02284344
0.05219071 0.021540478 -0.0330822 -0.028738543 0.04372256 -0.003950991 0.013574384 0.020031974
0.00045738646 0.02626578 0.02001168 0.019551974 -0.0139068505 0.003937256 0.0022291522 -0.039520726
-0.018188102 -0.0011295667 0.0075638024 -0.0397549 0.0076249605 -0.033929486 -0.034599192 -0.026282944
-0.0003742065 0.02842061 0.030310001 0.0125247445 -0.021593949 -0.03260365 -0.0041651293 0.042141773
0.031341154 -0.025787901 -0.03151287 -0.0077359467 -0.008733763 0.0010802785 0.02888996 0.033562403
-0.016119476 0.03941033 0.00795737 0.020420492 -0.030600034 0.039908573 -0.014094262 -0.030551279
0.006230303 -0.015299409 -0.041857336 0.013791949 0.028539546 -0.032534674 0.015362378 -0.011376543
-0.0023680308 -0.0288101 0.02290498 -0.016319096 0.030481204 0.02678239 -0.0016080996 0.031246705
-0.016830117 -0.006786003 -0.006041268 -0.029512186 0.03690488 0.037075493 -0.028589163 -0.025081793
0.041955475 -0.012723188 -0.017722547 0.023225216 -0.027105663 0.019084172 -0.04269021 0.05337346
0.02854336 -0.0012982852 0.017257683 -0.017803025 -0.005663607 -0.033617876 0.013051049 0.038381062
-0.02054584 0.008027177 0.041190177 -0.0016637384 0.027617525 -0.011977508 0.043850977 0.032447014
-0.0027114835 -0.015317999 0.048263475 0.0322127 0.01990208 0.0007391898 -0.0403878 0.049007166
-0.029666115 -0.006277057 -0.008180751 0.031945452 0.032754462 0.020747911 0.047923494 -0.009506309
0.02747107 -0.017047597 0.03961495 -0.02085383 0.013210541 -0.035652597 0.007821801 -0.008584764
0.03978539 0.031746056 0.006245433 -0.015449507 0.0030311614 -0.0060455934 0.024118584 -0.019642975
-0.031110723 -0.02269096 -0.01746394 -0.002809267 -0.04158279 -5.4409258e-05 0.02879059 -0.006849813
0.03211785 0.015328064 -0.030320015 0.014924112 -0.028830009 0.029387046 -0.039269276 -0.02345637
0.038455926 0.0448361 0.008175952 -0.030201191 0.04172218 0.043236967 -0.0005478274 -0.034373645
-0.03771174 0.049169373 0.013396207 -0.0021289599 -0.031225914 0.025082309 -0.016958138 0.02072932
0.01562458 0.006708908 0.036496002 0.03497602 -0.019464333 0.003811427 -0.0271331 -0.0010590027
0.02294306 0.04878247 0.003854079 0.027666664 -0.03015048 0.021002755 -0.043647 0.01733792
00000000: 2373 82bc 0bbb fd3c b948 8fbc 1185 c33a
00000010: 3a94 f2bc a00b 203d 7a92 a23c 7cfd d4bb
00000020: a31c 4c3d e57b 0ebb 4099 0b3c 42bf 363d
00000030: b0b6 c4bc 7790 8a3b c928 d03c 103e d7bc
00000040: d4af 90bc f1c7 79bc 11c1 113d 824b f8bc
00000050: 0c97 143d 8c73 6c3c 41d3 7f3c a59a a33c
00000060: c7fa fe3c 1d03 833c ad91 81bb ff46 cc3c
00000070: 9897 d93b 9137 edbc 9bf8 b1bb 1858 09bb
00000080: 0d14 07bc 4ae6 93bc 4027 71bc 2899 b13c
00000090: f089 563c c7dd 6f3d 05c5 083d 7210 84ba
000000a0: 44bc f4bc 8893 13bd 2640 113d 1970 a4bc
000000b0: 39a5 843c 2ea6 1e3d defb c0bc dffc 2dbd
000000c0: 537c f53b ac43 433c 8595 8e3c 24ce aebc
000000d0: 9d4c 1bbd 10c3 59bb 6078 b43c 2fc5 29bc
000000e0: ef05 29bd 6a96 dc3c 9173 22bd c0de c13c
000000f0: 62a0 b53b b68d 86bb 974b c13c a21d b13b
00000100: 3f11 a4bc d03b cebc c932 24bd 9d57 563c
00000110: 4632 59bc 05cd 023d 4c43 fe3b 6d79 0ebd
00000120: 5935 223d f1b5 223d 64c8 503c 65c9 d93c
00000130: e6b4 2a3d 2f63 8a3c 6b5d b53c 2a22 bbbc
00000140: edc5 553d a875 b03c 3381 07bd 186d ebbc
00000150: 6d16 333d 5177 81bb 1867 5e3c 181a a43c
00000160: 5fcd ef39 552b d73c 89ef a33c 762b a03c
00000170: 8fd9 63bc 1904 813b f816 123b 7ce0 21bd
00000180: 37ff 94bc f80d 94ba c6d9 f73b 09d6 22bd
00000190: ceda f93b a5f9 0abd e2b7 0dbd 544f d7bc
000001a0: 2531 c4b9 57d2 e83c ae4c f83c 9634 4d3c
000001b0: cbe5 b0bc 688b 05bd a37b 88bb da9c 2c3d
000001c0: 955f 003d 2641 d3bc a413 01bd d37d fdbb
000001d0: 0f18 0fbc 2298 8d3a a3aa ec3c bb78 093d
000001e0: fe0c 84bc ba6c 213d a15f 023c e048 a73c
000001f0: ecac fabc 2c77 233d 9feb 66bc ad46 fabc
00000200: 9227 cc3b 5faa 7abc 9972 2bbd a0f7 613c
00000210: c4cb e93c 1443 05bd 7cb2 7b3c ae64 3abc
00000220: f730 1bbb 2903 ecbc 3aa3 bb3c a0af 85bc
00000230: b8b3 f93c be66 db3c dec6 d2ba 17f9 ff3c
00000240: 50df 89bc 1e5d debb d4f5 c5bb 8ac3 f1bc
00000250: 9229 173d 79dc 173d d233 eabc 5578 cdbc
00000260: 81d9 2b3d eb74 50bc e02e 91bc cf42 be3c
00000270: b20c debc 6956 9c3c eedb 2ebd 219e 5a3d
00000280: c4d3 e93c 392b aaba fc5f 8d3c a6d7 91bc
00000290: c795 b9bb e6b2 09bd 11d4 553c 7635 1d3d
000002a0: c04f a8bc 6c84 033c 08b7 283d cc11 daba
000002b0: 263e e23c 4f3d 44bc 159d 333d 29e7 043d
000002c0: 25b3 31bb 58f8 7abc ecaf 453d 77f1 033d
000002d0: b009 a33c 30c6 413a ae6d 25bd bdbb 483d
000002e0: 5a06 f3bc c5af cdbb 8f08 06bc 3cd9 023d
000002f0: 8b29 063d 86f7 a93c 6d4b 443d 5ac0 1bbc
00000300: 020b e13c 67a7 8bbc 4943 223d a7d5 aabc
00000310: 0671 583c 7508 12bd 0327 003c 1ca7 0cbc
00000320: 01f6 223d 2708 023d 7da6 cc3b ee1f 7dbc
00000330: 73a6 463b 1d1a c6bb 5694 c53c 4eea a0bc
00000340: eadb febc 64e2 b9bc 8910 8fbc ae1b 38bb
00000350: b752 2abd 7f35 64b8 3eda eb3c 6574 e0bb
00000360: 028e 033d 8f22 7b3c ae61 f8bc 4384 743c
00000370: e92c ecbc 1abd f03c d2d8 20bd 9327 c0bc
00000380: f683 1d3d 0fa6 373d 6ef4 053c 7d68 f7bc
00000390: e0e4 2a3d 3f19 313d 139c 0fba 61cb 0cbd
000003a0: a077 1abd d365 493d c47b 5b3c 0586 0bbb
000003b0: 7dcd ffbc 6a79 cd3c cbeb 8abc 89d0 a93c
000003c0: 3dfe 7f3c 66d6 db3b d57c 153d 0443 0f3d
000003d0: aa73 9fbc 22c9 793b 3c46 debc 3cce 8aba
000003e0: 16f3 bb3c 21d0 473d b794 7c3b 33a5 e23c
000003f0: 24fe f6bc f80d ac3c 32c7 32bd 4108 8e3c

fc2.weight f4 [128, 256]
-0.025048923 -0.0038271854 0.045945898 -0.031450916 -0.052968092 -0.03656747 0.057522003 -0.034283407
0.06995492 0.046881516 0.08540528 0.06761869 -0.022511309 -0.0035936956 0.08710789 -0.01924396
-0.004551544 0.046986513 -0.052858926 0.03838348 0.082844965 0.026455048 -0.028532429 -0.02794176
-0.035815664 0.04001083 0.09982899 0.052837964 -0.011480245 0.0037992685 0.029305834 0.015531683
-0.05449224 0.004911019 0.0075317645 0.08486625 0.060109034 -0.028185416 -0.016934248 -0.023114305
-0.027148312 0.0476201 0.071778156 -0.047514107 -0.00985138 -0.07180497 -0.027247757 -0.002171168
-0.017816182 0.011312839 0.031057527 0.069906734 0.036839534 0.15355977 -0.06131869 0.04472499
-0.025297746 0.062189426 -0.008277282 0.08563605 0.057788588 0.07389076 -0.025997156 -0.057977173
0.032639045 0.03929505 0.03231623 0.06426633 0.063257866 0.13406532 -0.05368518 -0.05230906
0.0149111925 0.0076987892 -0.07479015 0.07813451 0.058519546 -0.034815863 0.049356375 0.11748181
-0.0012792358 0.012204775 0.045057748 -0.008666497 -0.0645793 0.06146558 0.0212407 0.008902575
0.038241 0.052701015 -0.055221047 -0.01793086 -0.08664466 -0.022941971 0.0013994321 0.010192769
-0.044304702 -0.046950325 0.007525724 0.047393195 -0.046312 0.0004798739 -0.005179977 0.049837783
-0.044229098 -0.02648124 -0.05750353 -0.017046317 -0.058826957 0.03043333 0.06903623 -0.060542107
-0.0037048995 -0.042624168 -0.000584975 0.0126274135 0.06627229 0.01859311 0.037704077 0.118315585
-0.059507824 -0.1531044 -0.018398834 0.0046433914 -0.0614377 -0.029071696 0.10524937 -0.05300522
0.04669334 -0.039394516 -0.018029666 0.01980914 0.044488613 -0.011216208 0.028600983 0.034161195
-0.027892286 0.019109627 0.044636235 0.04153733 -0.07052241 -0.046583492 0.0006587673 0.017646316
0.043002862 -0.005015499 0.059939545 -0.017355587 0.12987274 -0.11181086 -0.014818743 -0.013881951
0.06329217 -0.07997817 -0.057532378 0.010450027 0.16090393 -0.051170893 -0.004700761 -0.02421975
-0.045258634 0.020956341 -0.03880247 0.0059514334 -0.049855117 -0.04400695 -0.06018833 0.0072980346
0.09157967 -0.024749588 -0.024675421 -0.003899385 0.17079082 0.049657196 0.03747657 0.040634044
0.054499745 -0.029337049 -0.023915086 0.057555202 -0.037952036 0.027297389 0.041946393 0.012936624
0.016641745 0.013987008 0.036978275 -0.0057982933 -0.057398185 0.04961236 -0.03882344 0.031687748
0.009651138 -0.03068838 0.08680646 0.054243308 -0.0321539 -0.030158669 0.010658748 0.07611215
-0.018685414 0.03673516 0.04874869 -0.015351408 -0.0018136371 0.059058983 0.06545608 0.055462487
0.031401373 -0.038252126 0.002915886 -0.07882384 -0.035603043 -0.0060368357 -0.03182114 0.0150631685
-0.026194813 0.029600292 0.12884027 -0.0014087975 0.04307064 0.04487093 -0.00038468314 0.11481862
-0.035164203 0.052357376 0.16030137 0.02053601 0.10376439 0.034357134 0.087375335 -0.052963942
0.03935072 0.061946686 -0.0041477527 -0.004862852 0.032711867 -0.03686142 -0.04917076 -0.03793741
0.06501482 -0.01167367 -0.08375389 -0.012644568 0.04953632 0.030479616 -0.028665602 -0.04883909
-0.004678473 -0.035252497 0.05859563 -0.0018108494 0.05599473 0.0007419001 -0.04189717 0.003736648
00000000: 6633 cdbc 84d1 7abb c431 3c3d add2 00bd
00000010: 12f5 58bd c5c7 15bd 319c 6b3d c26c 0cbd
00000020: 8644 8f3d d506 403d f7e8 ae3d ab7b 8a3d
00000030: a369 b8bc 3584 6bbb 9f65 b23d 82a5 9dbc
00000040: 1e25 95bb ee74 403d 9a82 58bd ff37 1d3d
00000050: 9faa a93d 42b8 d83c d7bc e9bc 1ee6 e4bc
00000060: 72b3 12bd 65e2 233d 2473 cc3d 9f6c 583d
00000070: a317 3cbc 26fd 783b ca12 f03c 9a78 7e3c
00000080: 4133 5fbd 9dec a03b 05cd f63b 5bce ad3d
00000090: e434 763d 1ae5 e6bc b1b9 8abc 365a bdbc
000000a0: 2366 debc 4b0d 433d 6d00 933d 279e 42bd
000000b0: af67 21bc 7c0e 93bd b036 dfbc 284a 0ebb
000000c0: 3ef3 91bc 7c59 393c 5b6c fe3c 432b 8f3d
000000d0: 0de5 163d c63e 1d3e 4f29 7bbd 8d31 373d
000000e0: 383d cfbc 57ba 7e3d 709d 07bc f461 af3d
000000f0: bab3 6c3d 0a54 973d fdf7 d4bc 7979 6dbd
00000100: 85b0 053d d9f3 203d 065e 043d 119e 833d
00000110: 578d 813d 6b48 093e fee4 5bbd 0642 56bd
00000120: 134e 743c 2046 fc3b 942b 99bd fc04 a03d
00000130: 31b2 6f3d 149b 0ebd e929 4a3d 4e9a f03d
00000140: 08ac a7ba 89f6 473c 798e 383d ecfd 0dbc
00000150: 2742 84bd 55c3 7b3d fa00 ae3c 1bdc 113c
00000160: 98a2 1c3d 05dd 573d 772f 62bd bde3 92bc
00000170: c172 b1bd cdf0 bbbc 266d b73a 92ff 263c
00000180: d978 35bd fc4e 40bd 599a f63b 5e1f 423d
00000190: a7b1 3dbd 9697 fb39 ccbc a9bb b422 4c3d
000001a0: 9229 35bd 2fef d8bc d288 6bbd b8a4 8bbc
000001b0: 89f4 70bd 524f f93c de62 8d3d 00fb 77bd
000001c0: e6cd 72bb ae96 2ebd 0259 19ba 36e3 4e3c
000001d0: c4b9 873d 9450 983c 976f 1a3d 714f f23d
000001e0: 7abe 73bd 66c7 1cbe 27b9 96bc 9727 983b
000001f0: 19a6 7bbd c427 eebc fb8c d73d 001c 59bd
00000200: 8441 3f3d 255c 21bd f3b2 93bc c746 a23c
00000210: b139 363d 30c4 37bc 9c4c ea3c 9cec 0b3d
00000220: 5d7e e4bc cb8b 9c3c 7cd4 363d 0c23 2a3d
00000230: 0e6e 90bd 55ce 3ebd 20b1 2c3a 028f 903c
00000240: c523 303d 0e59 a4bb 2b83 753d 4e2d 8ebc
00000250: 5cfd 043e 18fd e4bd 50ca 72bc 1f71 63bc
00000260: 539f 813d 98cb a3bd 12a7 6bbd 9736 2b3c
00000270: 00c4 243e 9298 51bd d708 9abb 7f68 c6bc
00000280: 1e61 39bd a2ac ab3c 57ef 1ebd 3e04 c33b
00000290: e134 4cbd a240 34bd 0a88 76bd 5a24 ef3b
000002a0: 1f8e bb3d a6bf cabc 1c24 cabc d38c 7fbb
000002b0: cae3 2e3e 5865 4b3d 0881 193d e26f 263d
000002c0: 203b 5f3d 4054 f0bc 92e9 c3bc 01bf 6b3d
000002d0: 9873 1bbd c69e df3c fbcf 2b3d 22f4 533c
000002e0: 4554 883c c329 653c 8876 173d 9cff bdbb
000002f0: 5c1a 6bbd 5436 4b3d 5405 1fbd 03cb 013d
00000300: cf1f 1e3c 3366 fbbc 96c7 b13d 3b2e 5e3d
00000310: cfb3 03bd 500f f7bc 08a2 2e3c b0e0 9b3d
00000320: 2712 99bc 9b77 163d b5ac 473d 7984 7bbc
00000330: 90b7 edba d5e7 713d d60d 863d a22c 633d
00000340: ba9e 003d 43ae 1cbd 7318 3f3b 656e a1bd
00000350: 7fd4 11bd a6d0 c5bb e256 02bd 82cb 763c
00000360: 8196 d6bc 507c f23c b4ee 033e 66a7 b8ba
00000370: d76a 303d 95ca 373d 4caf c9b9 0626 eb3d
00000380: 5708 10bd b074 563d 0b26 243e 223b a83c
00000390: 6d82 d43d 11ba 0c3d d7f1 b23d b8f0 58bd
000003a0: 382e 213d cfbb 7d3d dfe9 87bb 8f58 9fbb
000003b0: e1fc 053d 00fc 16bd 4767 49bd 4264 1bbd
000003c0: 7d26 853d ec42 3fbc 2987 abbd 2a2b 4fbc
000003d0: 99e6 4a3d 63b0 f93c 20d4 eabc 7f0b 48bd
000003e0: e04d 99bb ec64 10bd f901 703d 065a edba
000003f0: bb5a 653d 137c 423a 5e9c 2bbd 8de2 743b

fc2.bias f4 [128]
-0.042296566 -0.037345104 -0.0563338 -0.029705338 0.041811775 -0.027461149 -0.0581794 0.020171054
-0.05409 -0.049671087 0.005082405 0.019362314 0.050426498 0.04450714 0.017414402 -0.040864192
0.029237779 -0.022316331 0.066067256 0.035373326 0.06505653 0.093335 0.00022534929 0.01909026
-0.0060661132 -0.010361435 -0.05530711 0.022710355 0.045918263 -0.011333598 0.015270578 0.0066580633
0.0582086 -0.02485676 0.0031158286 0.044915218 -0.016810657 -0.011936485 -0.015943669 0.02049123
-0.031549737 -0.0428939 0.048199747 -0.012652326 -0.012576148 0.025677625 0.017054005 0.05292285
0.024129702 -0.020934092 -0.025357518 -0.00292949 0.009069347 -0.05010749 0.055909973 0.022437619
0.02897983 0.07482926 -0.034465376 -0.0062336954 -0.0003714226 0.009856793 -0.052993424 0.078446425
-0.015984721 -0.043219563 0.031937912 -0.07732599 0.050542526 0.018419866 0.020536445 -0.017346483
-0.01728744 -0.029035633 -0.0402593 0.0919792 -0.023269095 0.035437997 -0.025374135 0.05517435
0.03918832 -0.0041212626 -0.066302024 -0.04198647 0.015121339 -0.05257554 0.039338022 -0.02520978
-0.020888615 -0.0005318224 0.012998619 -0.020560877 0.0077464404 -0.03639494 0.06420447 -0.007579603
-0.030761618 0.021465037 0.011029864 0.016193224 0.03130214 0.103129864 0.026394412 0.0028201076
0.02185615 -0.049147848 0.040920325 -0.068686426 0.031852968 0.043860327 0.018062068 0.005452805
0.017893318 -0.024587473 -0.025482886 0.011822585 0.04475715 -0.012279534 -0.0045244796 0.018458562
-0.05127054 0.070629 -0.057665613 0.049330186 -0.0338086 0.06148451 -0.017179726 0.07089209
00000000: 2a3f 2dbd 2ef7 18bd 45be 66bd 9c58 f3bc
00000010: d342 2b3d 34f6 e0bc 864d 6ebd c43d a53c
00000020: 7a8d 5dbd e973 4bbd 4e8a a63b b79d 9e3c
00000030: 048c 4e3d 1e4d 363d a6a8 8e3c 3661 27bd
00000040: 1184 ef3c bdd0 b6bc 454e 873d 9fe3 103d
00000050: 5c3c 853d 6c26 bf3d bd4b 6c39 2d63 9c3c
00000060: 3fc6 c6bb 02c3 29bc b589 62bd 110b ba3c
00000070: ca14 3c3d 8eb0 39bc 7231 7a3c e22b da3b
00000080: 246c 6e3d 67a0 cbbc ee32 4c3b 05f9 373d
00000090: 81b6 89bc 3f91 43bc 4c9c 82bc 39dd a73c
000000a0: 4c3a 01bd 84b1 2fbd 196d 453d b44b 4fbc
000000b0: 300c 4ebc e259 d23c d7b4 8b3c a1c5 583d
000000c0: a7ab c53c f97d abbc 92ba cfbc b0fc 3fbb
000000d0: 9997 143c 833d 4dbd db01 653d 19cf b73c
000000e0: 1c67 ed3c 1540 993d 912b 0dbd 0744 ccbb
000000f0: 7fbb c2b9 637e 213c a20f 59bd 85a8 a03d
00000100: 64f2 82bc ff06 31bd 54d1 023d 175d 9ebd
00000110: ae05 4f3d 42e5 963c 0c3c a83c 361a 8ebc
00000120: 649e 8dbc 23dc edbc f0e6 24bd 975f bc3d
00000130: d49e bebc 6f27 113d 6bdd cfbc 80fe 613d
00000140: ef83 203d a80b 87bb 5bc9 87bd 01fa 2bbd
00000150: 7ebf 773c 7359 57bd e820 213d be84 cebc
00000160: 9a1e abbc ff69 0bba 29f8 543c 496f a8bc
00000170: dad5 fd3b dc12 15bd a27d 833d 525e f8bb
00000180: caff fbbc 72d7 af3c 9ab6 343c a7a7 843c
00000190: ac36 003d c035 d33d 1839 d83c 8ed1 383b
000001a0: ab0b b33c 414f 49bd 129c 273d 78ab 8cbd
000001b0: 4278 023d e3a6 333d e7f6 933c 72ad b23b
000001c0: 0295 923c ab6b c9bc 7cc1 d0bc 84b3 413c
000001d0: 4653 373d 1930 49bc 1642 94bb 6936 973c
000001e0: 0f01 52bd f0a5 903d c732 6cbd 730e 4a3d
000001f0: e37a 0abd 2ed7 7b3d 7fbc 8cbc df2f 913d

fc3.weight f4 [44, 128]
-0.26689446 -0.069071524 0.057720184 0.18977068 0.086082496 -0.033859275 -0.0028796848 0.031974625
-0.0010161167 -0.066848405 -0.06006813 -0.0945215 -0.24734573 0.114799134 -0.068658106 -0.04366537
0.28365245 0.14862765 0.09383587 -0.07848609 -0.027667137 -0.025966953 -0.13448745 0.061757617
0.13697185 0.18113141 -0.14243206 -0.06292592 0.12126254 0.012616396 -0.019185534 -0.013914296
0.10353982 0.10421576 -0.08024387 0.07066124 -0.06294868 -0.09223555 0.0021715094 -0.07421669
-0.061992627 -0.027042331 0.022762889 0.085257046 -0.024082256 0.12279878 0.061680052 -0.06044854
0.11465436 -0.09149737 0.047777895 0.1657821 -0.021681791 0.02458723 -0.016305175 -0.12658109
-0.011023958 -0.061505727 0.06696222 -0.025035962 -0.07877984 -0.07483185 0.05835937 -0.15155475
-0.21555755 -0.062207386 0.053909086 0.019248245 0.06205677 0.045379054 0.05918017 -0.08600134
0.13296847 0.11509522 -0.048300967 0.14170307 -0.18831372 -0.027826756 0.035985455 0.0046071582
0.07759184 0.16435196 0.034321487 0.09948764 0.3012648 -0.039730836 0.08395066 -0.048508976
-0.08617268 0.08422808 0.017995795 -0.14824635 -0.037730023 -0.08279638 -0.09252713 0.10651432
0.03890544 -0.043731343 -0.2277631 0.09771073 -0.06240017 -0.2319306 -0.038096454 -0.033272527
-0.06951306 0.029303387 0.19103184 -0.0039290064 0.058654115 0.14597297 0.059639577 0.1256596
0.020413186 -0.04832352 0.014014576 -0.037986062 0.07549777 0.029361442 -0.03315358 -0.042694427
-0.09621501 0.32024738 0.07001987 -0.31547785 -0.08665853 -0.1672904 0.26167944 -0.056050833
0.02640306 0.024236996 0.023011575 0.067023285 0.10308262 -0.10318683 0.16561341 -0.12825409
0.042158656 -0.040232748 -0.01937649 -0.024352707 0.03891378 0.0122655 -0.03646135 0.007749251
0.112301774 0.2179653 0.027554238 0.02393185 -0.10333661 0.0068567265 -0.033821315 0.11222183
0.012371048 -0.11667637 -0.04381137 0.085098185 0.03043342 -0.00418759 0.04446421 -0.060839582
0.12419368 0.049716037 0.08635616 -0.0052799755 0.17815414 0.007039598 -0.12817837 -0.15904535
-0.046613637 -0.047430266 0.03235707 -0.010492635 0.06307634 -0.0045015635 0.08607209 -0.12459766
-0.1546733 -0.17780627 0.08484927 0.22530992 -0.08019202 0.0070070983 -0.053642407 -0.06992893
-0.013854445 0.12714799 0.101426296 -0.072845325 -0.02276778 0.022244317 -0.08227279 -0.26460645
0.028269434 0.13722557 0.08032158 -0.035225403 0.1377151 0.07573889 -0.14473781 -0.18411808
-0.10169552 0.043222204 -0.03695419 0.2353571 -0.14642465 0.008463547 -0.039765086 -0.077705614
-0.042994767 0.13691509 0.00020552671 0.13689362 0.04345285 0.028000906 0.00331525 -0.016083097
-0.027545871 -0.007671791 0.040066883 0.0073097604 -0.033850987 0.030325364 -0.05331949 0.027952718
0.019800745 -0.083552964 -0.22114335 -0.15005296 -0.025311183 -0.22484101 0.1547772 -0.030623212
-0.01727934 -0.052297603 0.11993034 -0.108182676 0.1449285 0.25260872 -0.08408841 0.084203474
0.04811347 -0.03238426 -0.13506941 0.027712867 0.21818002 0.08312125 0.1188944 -0.13440958
-0.019162089 0.13694334 -0.019065704 -0.2651987 0.007844995 0.08374017 0.39138094 -0.1440001
00000000: 64a6 88be 5f75 8dbd 006c 6c3d 3f53 423e
00000010: 054c b03d 06b0 0abd 18b9 3cbb d3f7 023d
00000020: 382f 85ba d1e7 88bd 000a 76bd 7d94 c1bd
00000030: 3348 7dbe cf1b eb3d 9f9c 8cbd 76da 32bd
00000040: e53a 913e d931 183e 052d c03d 51bd a0bd
00000050: 31a6 e2bc a6b8 d4bc 14b7 09be 8ef5 7c3d
00000060: 5942 0c3e 837a 393e b6d9 11be 4edf 80bd
00000070: 7f58 f83d 00b5 4e3c fb2a 9dbc caf8 63bc
00000080: af0c d43d 136f d53d e656 a4bd d7b6 903d
00000090: 3deb 80bd fee5 bcbd e24f 0e3b ecfe 97bd
000000a0: fbeb 7dbd e187 ddbc 3d79 ba3c 3f9b ae3d
000000b0: 2748 c5bc ed7d fb3d 39a4 7c3d e398 77bd
000000c0: e8cf ea3d f962 bbbd c1b2 433d c8c2 293e
000000d0: 039e b1bc 296b c93c 6e92 85bc 799e 01be
000000e0: d59d 34bc 6eed 7bbd 7d23 893d 3818 cdbc
000000f0: 5357 a1bd 7141 99bd 3c0a 6f3d 2b31 1bbe
00000100: 1ebb 5cbe 2ccd 7ebd c6cf 5c3d 7fae 9d3c
00000110: 3d2f 7e3d 63df 393d e866 723d 7821 b0bd
00000120: e328 083e 0bb7 eb3d 3cd7 45bd 9c1a 113e
00000130: 50d5 40be f0f4 e3bc 7c65 133d a5f7 963b
00000140: 78e8 9e3d e14b 283e b094 0c3d 2dc0 cb3d
00000150: 613f 9a3e cdbc 22bd 53ee ab3d 59b1 46bd
00000160: 4d7b b0bd c67f ac3d eb6b 933c e4cd 17be
00000170: cc8a 1abd 2691 a9bd dd7e bdbd 2e24 da3d
00000180: 505b 1f3d a31f 33bd bb3a 69be 901c c83d
00000190: 5297 7fbd 377f 6dbe 070b 1cbd c648 08bd
000001a0: dd5c 8ebd a80d f03c da9d 433e e5be 80bb
000001b0: 4c3f 703d f079 153e a148 743d e9ac 003e
000001c0: 8e39 a73c e2ee 45bd 649d 653c 4697 1bbd
000001d0: 939e 9a3d 6887 f03c 0ccc 07bd 5ae0 2ebd
000001e0: 600c c5bd 77f7 a33e 9466 8f3d 5086 a1be
000001f0: 077a b1bd 2d4e 2bbe d9fa 853e 8f95 65bd
00000200: 3b4b d83c aa8c c63c c582 bc3c 8143 893d
00000210: fb1c d33d 9e53 d3bd 9096 293e 0a55 03be
00000220: 8eae 2c3d 18cb 24bd 72bb 9ebc 547f c7bc
00000230: 0e64 1f3d 3cf5 483c 7f58 15bd 6eed fd3b
00000240: 79fe e53d 4c32 5f3e 6db9 e13c ba0c c43c
00000250: 25a2 d3bd 64ae e03b 3888 0abd 8fd4 e53d
00000260: f0af 4a3c 05f4 eebd 8d73 33bd f547 ae3d
00000270: 824f f93c 0d38 89bb 1a20 363d ed32 79bd
00000280: 4259 fe3d 0ba3 4b3d 80db b03d a503 adbb
00000290: 0a6e 363e 6eac e63b 3141 03be c9dc 22be
000002a0: f1ed 3ebd 3d46 42bd d988 043d 4de9 2bbc
000002b0: 2b2e 813d da81 93bb 9046 b03d 0f2d ffbd
000002c0: ad62 1ebe d912 36be 74c5 ad3d a5b7 663e
000002d0: b73b a4bd cd9b e53b 24b8 5bbd e636 8fbd
000002e0: c1fd 62bc 1533 023e 97b8 cf3d ee2f 95bd
000002f0: 7f83 babc b739 b63c a37e a8bd 7f7a 87be
00000300: 4d95 e73c dc84 0c3e a47f a43d 8348 10bd
00000310: 3005 0d3e fe1c 9b3d 2636 14be 7389 3cbe
00000320: be45 d0bd c409 313d 475d 17bd 7401 713e
00000330: 58f0 15be b0aa 0a3c b7e0 22bd 1f24 9fbd
00000340: 481b 30bd 7833 0c3e a882 5739 d72d 0c3e
00000350: 9efb 313d 2862 e53c aa44 593b b3c0 83bc
00000360: e1a7 e1bc a663 fbbb 2c1d 243d b786 ef3b
00000370: 55a7 0abd e66c f83c 8a65 5abd 19fd e43c
00000380: 2c35 a23c d11d abbd 6773 62be 7ca7 19be
00000390: 6659 cfbc b93c 66be ea7d 1e3e 88dd fabc
000003a0: 678d 8dbc 0336 56bd 0a9e f53d e18e ddbd
000003b0: 2368 143e ee55 813e 8b36 acbd df72 ac3d
000003c0: a112 453d 5ca5 04bd a34f 0abe 1806 e33c
000003d0: 956a 5f3e 793b aa3d e87e f33d aaa2 09be
000003e0: d0f9 9cbc e03a 0c3e ae2f 9cbc 20c8 87be
000003f0: 4b88 003c f77f ab3d 1563 c83e c374 13be

fc3.bias f4 [44]
0.029417748 0.039817005 0.060837697 0.10843096 0.03326545 -0.08146712 0.050601546 -0.06425473
-0.0039657117 0.02817122 -0.025379594 -0.019870562 -0.14936793 -0.036313392 -0.05956467 -0.0040073725
0.059458867 0.11295354 0.07405478 -0.06863792 0.10464894 0.010475546 0.036058757 -0.17221062
0.071140096 0.09704937 -0.045046993 0.047456753 -0.07170763 -0.10138713 0.06729488 -0.14353612
0.106944636 -0.045373894 -0.07698326 0.07043394 -0.06083759 -0.048372965 -0.10582801 0.018390706
-0.037750345 -0.048375998 -0.015811376 0.12207102
00000000: 7dfd f03c 2817 233d f330 793d 0d11 de3d
00000010: 5a41 083d 3cd8 a6bd 9143 4f3d fc97 83bd
00000020: cdf2 81bb 55c7 e63c dee8 cfbc 97c7 a2bc
00000030: e8f3 18be 5abd 14bd 15fa 73bd 4750 83bb
00000040: 248b 733d 3054 e73d 08aa 973d 0a92 8cbd
00000050: 2f52 d63d a0a1 2b3c 59b2 133d fb57 30be
00000060: e6b1 913d d2c1 c63d 3283 38bd 0362 423d
00000070: 73db 92bd 0ea4 cfbd e6d1 893d 22fb 12be
00000080: ca05 db3d fad9 39bd 66a9 9dbd ab3f 903d
00000090: d630 79bd bb22 46bd 5bbc d8bd 1ba8 963c
000000a0: 1ba0 1abd e925 46bd dc86 81bc 5f00 fa3d
