src/python/saved_models/model_MLP.pt (torch, 681495 bytes, 6 tensors)

fc1.weight f4 [256, 512]
000000 86 d2 20 3d 5a c9 b2 bc a3 e1 e8 bc 51 9e 02 bd
       0.03926327 -0.021824528 -0.028427904 -0.031889264
000010 5c 7b cb bc 98 0c 09 bb 91 68 09 3d 67 1a 19 bd
       -0.024839096 -0.0020912047 0.033546988 -0.037378695
000020 ac 1d f6 3c a4 98 cc bc b4 93 e9 3c 23 61 27 3d
       0.030043446 -0.024975128 0.028512813 0.04086412
000030 d5 6b 49 bc bd 05 68 bc bf c4 da 3c 90 16 e9 bc
       -0.012293776 -0.014161524 0.026705144 -0.028453141
000040 04 5e 64 3c b7 6d 16 bb b6 0c 25 bd f5 ee 3e 3c
       0.013938431 -0.0022953579 -0.040295325 0.0116536515
000050 99 1c 22 bd a4 f1 ad bc 21 bb 47 bc b6 f8 79 bc
       -0.039578054 -0.021233387 -0.012190611 -0.015257051
000060 04 68 ef 3c b5 b5 3b bc 82 24 34 bd 9e e2 1a bd
       0.029224403 -0.011456897 -0.04398013 -0.037813775
000070 a1 4c 81 3c fc f5 a9 3c db 28 d5 3c 15 67 d7 3b
       0.01578361 0.020747177 0.026020458 0.0065735676
000080 f3 ad 17 bd 36 4c 20 3d 5c 09 c0 bc 28 11 9f bc
       -0.037031125 0.03913518 -0.023441963 -0.01941736
000090 f7 58 27 bd 3d 65 ef bc 59 82 4b bc e7 b6 29 bd
       -0.040856328 -0.029223079 -0.012421214 -0.041434195
0000a0 3d 7c 5c bc c2 1c 1b 3d 73 b5 cc 3c 89 a8 14 bd
       -0.013457355 0.037869222 0.024988865 -0.03629354
0000b0 cc 77 15 3d 59 7a fc 3c bd d4 4a bc 1d ce d1 bb
       0.0364912 0.030820059 -0.012379822 -0.0064027444
0000c0 5b 15 85 bc 50 f1 fe bc 1c 68 03 3d 1a f5 0d bd
       -0.016245535 -0.031120926 0.03208171 -0.034657575
0000d0 21 94 7c bc a1 f9 52 bc 5b 25 d2 3c 1b b6 ce 3c
       -0.015416176 -0.012876899 0.025652578 0.025233319
0000e0 25 b6 4b 3a f9 3c 77 bc 55 c1 c1 bb dd 94 ba 3b
       0.0007770977 -0.015090221 -0.0059129396 0.0056940154
0000f0 a4 d1 08 bd 63 8b 03 bd db 18 c3 3c d6 68 36 bb
       -0.033403054 -0.03211535 0.023815563 -0.0027833483
000100 f5 be 4f bb fa a4 2d bc 71 69 d5 bc 5c 32 10 3c
       -0.0031699513 -0.0105984155 -0.026051255 0.008801069
000110 77 39 82 bc d3 d7 f3 bc 24 9e b9 3c 91 be 82 bc
       -0.015896542 -0.029765999 0.022658415 -0.01596001
000120 f6 42 2b bb 73 3e bf 3c 38 c3 22 3d e9 a0 8c bc
       -0.002613244 0.023345208 0.039736956 -0.017166572
000130 0f 3e 73 3b 2f d4 0c bd f1 dd 32 bd 03 ba 92 3c
       0.0037115847 -0.03438204 -0.04366869 0.017910963
000140 16 c6 2b bb d3 be 33 3d 2c 1c ac 3c 7b 79 0c bd
       -0.0026210598 0.043883156 0.021009527 -0.03429554
000150 3c e1 a5 3c b9 42 3f bc 1b f8 05 bd 6b 27 1e 3c
       0.020249002 -0.011673623 -0.032707315 0.009652953
000160 47 02 ac bc 5a dd 19 bd a1 45 b9 bc 07 77 1b bb
       -0.02099718 -0.037564613 -0.02261621 -0.002372207
000170 bb 78 ec bc e0 b9 fe 3c bb 87 5c bc 06 fa cc bc
       -0.028866163 0.031094491 -0.013460095 -0.025021564
000180 f8 61 c9 bc d0 de f5 bc 6f 06 69 bc ce d6 33 bd
       -0.024582848 -0.030013472 -0.014222725 -0.043906026
000190 34 1e ae 3c e6 da 89 3c 2a 2e e1 3c 74 96 02 3d
       0.021254636 0.016828012 0.027487833 0.031881765
0001a0 4a 81 7e 3b 6b cd 84 bc ab 43 d2 3c 34 75 0b 3c
       0.0038834387 -0.016211232 0.025667032 0.00851183
0001b0 85 1b 0f 3d a4 e9 de b9 a5 a9 09 bd 71 4a ee bc
       0.034938354 -0.00042517215 -0.03360905 -0.02908823
0001c0 32 26 02 3d 49 7b b4 bc 0e e6 ab 3b d0 38 8d 3b
       0.031774707 -0.022031443 0.0052459305 0.004309751
0001d0 a9 60 eb bc 4b 8f 83 3c 5e 61 0b bd 81 60 40 bc
       -0.028732615 0.016059538 -0.034028403 -0.011741758
0001e0 4b f8 ef bc 0b 88 34 bd f6 8b b1 bc 61 6b 10 3d
       -0.0292932 -0.044075053 -0.021673184 0.035258655
0001f0 21 d0 69 3c ae 58 15 3d ea de fd 3b da 59 8f 3c
       0.014270813 0.036461525 0.0077475207 0.0174989
000200 70 8f 86 bb 4d e2 a1 3c 57 1e bd 3c 24 b3 a5 3c
       -0.0041064546 0.019761229 0.023085756 0.020227022
000210 73 5c 10 3d 47 a1 cc 3c 9c b0 0a bd bd d0 c1 bc
       0.035244416 0.024979247 -0.033859834 -0.023659104
000220 94 4b 5e 3b ec 33 79 3b 95 f1 00 bd 94 ec 0f bc
       0.003391956 0.0038025333 -0.03148039 -0.008784432
000230 49 d0 03 bd 53 05 34 bd 2c d5 b1 3c a5 a1 d7 3a
       -0.032181058 -0.04395039 0.021708094 0.0016451372
000240 04 8e ac 3c f3 18 26 3d aa e3 7d 3b a7 a4 1c 3b
       0.021063812 0.040551137 0.0038740435 0.0023901851
000250 77 ac 9b bb 8a ef 7f bb 8f 98 88 bc 75 3f 0e bd
       -0.004750784 -0.0039052689 -0.016674308 -0.034728486
000260 31 33 ba bc a1 b1 e9 bc e0 8d 71 3b 47 c7 cb 3c
       -0.022729488 -0.028527083 0.0036858246 0.024875296
000270 43 f3 22 bd 5f 01 0f bd 0a 48 31 bc e4 a8 88 3c
       -0.039782774 -0.034913417 -0.010820398 0.016682096
000280 23 78 d0 3c ad d7 0c 3d 15 b0 57 3c b6 06 24 bc
       0.02544791 0.034385372 0.01316454 -0.010011366
000290 28 aa e5 3c 7d 9a 3a 3c 67 da ca 3c 61 5e 2d 3d
       0.028035238 0.011389372 0.024762345 0.042326335
0002a0 ce 96 32 bc a7 73 fb bc 46 6e 8c 3c 22 01 f0 3b
       -0.010900212 -0.030694796 0.017142426 0.007324354
0002b0 0e ac a4 3b c4 40 30 bd d4 88 5e 3b 4b 17 07 3d
       0.0050253933 -0.043030515 0.0033956068 0.0329812
0002c0 dc 44 19 3d db c1 2e 3d ef 95 18 bd a5 83 50 bc
       0.037419185 0.042665344 -0.037252363 -0.012726699
0002d0 37 27 e8 bc 4a 06 75 3c d1 a2 24 bd 0e f8 02 3d
       -0.028339012 0.014955113 -0.040194336 0.031974845
0002e0 7d 59 29 3d 8f 09 ca 3c d7 f7 92 bc b0 bb 03 3d
       0.04134511 0.024662761 -0.017940445 0.032161415
0002f0 5b 48 27 bd d4 7a b9 bc ec 17 8e bc 85 b8 ce 3a
       -0.040840488 -0.022641577 -0.017345391 0.0015771544
000300 a0 a4 b8 3c fd e0 bf bc b5 cb 10 3d ae b8 fa 3c
       0.022539437 -0.023422712 0.03535052 0.03060564
000310 11 0d 10 3d a3 c7 58 bc 22 18 92 bc b4 0c 61 3c
       0.03516871 -0.013231191 -0.017833773 0.013735939
000320 26 21 b8 b9 20 1a e7 bb c0 5b 12 3d 69 2d 2d 3d
       -0.00035119912 -0.007052675 0.03573203 0.042279635
000330 8a 35 7f 3c 64 28 ac 3c 75 2f a1 3c 9b 51 c3 3c
       0.01557673 0.021015354 0.01967595 0.023842623
000340 42 fd 1e bd 36 27 8a 3c 4f 9c 07 bd 97 60 bb 3c
       -0.038815744 0.0168644 -0.033108052 0.022873206
000350 77 31 13 bb 62 40 8c 3c 1a 78 37 3c e7 24 da 3c
       -0.0022459903 0.017120544 0.011198068 0.026628925
000360 08 bd f9 bc 8c 44 2f bd f6 d5 d9 bc 41 77 45 bc
       -0.030485645 -0.04278998 -0.026591282 -0.012052358
000370 ea 29 1c bd 53 94 e5 3b 52 38 a3 bc 9d c5 c9 bc
       -0.03812591 0.007006207 -0.019924317 -0.024630362
000380 38 57 04 3d 6c cc 11 bd 12 d9 02 3d 20 2a d4 bc
       0.03230974 -0.035595343 0.031945296 -0.025898993
000390 55 22 52 bb ae 53 33 bd e5 6c 00 3c 24 12 f9 bb
       -0.003206392 -0.043780975 0.0078384625 -0.0076010395
0003a0 ce f6 0f bd b7 43 02 bd 27 9a a0 ba e0 a0 79 bc
       -0.03514748 -0.03180286 -0.0012252972 -0.0152361095
0003b0 d9 fa a0 bc 67 78 23 3d 4f b8 8f bc cc 44 1f bd
       -0.019650863 0.039909746 -0.01754394 -0.03888397
0003c0 18 1f 11 3c 21 d9 52 bc 85 f0 47 bb 72 7d 90 bc
       0.008857511 -0.01286915 -0.003050835 -0.017637942
0003d0 dd 88 3e bc 22 c7 2d 3c 60 2d a6 bc ca cb ef bb
       -0.01162931 0.010606559 -0.020285308 -0.0073179947
0003e0 3c 9e 62 bc e0 4e 72 bb 95 8e 40 bb 2b cc 1d bc
       -0.013831671 -0.0036973283 -0.002938186 -0.009631197
0003f0 d4 fb d2 bc a3 c9 1f bd be 16 19 bd b1 35 42 bc
       -0.025754847 -0.039010655 -0.037375204 -0.011853621

fc1.bias f4 [256]
000000 4d 1a e5 bc be 08 9e bc 52 79 08 bd 29 88 18 3d
       -0.027966643 -0.019291278 -0.033318825 0.037239227
000010 dd 86 e1 3c 21 ac 5c 3c 07 c4 da bb 36 75 06 bd
       0.027530128 0.013468773 -0.0066762003 -0.032826625
000020 77 6b 03 bc 1c 61 02 bb b1 8e 68 bc 54 d5 a3 3b
       -0.008021227 -0.0019894307 -0.0141941765 0.004999796
000030 77 ef 13 bb 47 db 46 3d 8b 9c b2 3c 24 a8 cf 3c
       -0.0022573152 0.048548963 0.021803161 0.02534873
000040 81 2d 0d bd 8f 72 a2 3c b4 99 34 bd 6f bd 26 3d
       -0.034467224 0.019830016 -0.044091895 0.040708
000050 6f 3e c4 bb 10 b9 03 3d 93 c4 16 3d 31 6d 26 3d
       -0.005988888 0.03215891 0.03680856 0.040631477
000060 8d 77 2a 3c 01 ac 15 bd 8d dc 8d bc a2 31 30 3d
       0.01040448 -0.03654099 -0.01731708 0.043016084
000070 1d af ac 3c cc e3 68 3d db f5 33 3d 7a 7a 1c 3d
       0.021079594 0.05685787 0.043935638 0.03820274
000080 db 5d 24 bd fd 96 22 bd 0e c5 5c bb dd 3b 15 bc
       -0.04012857 -0.039694775 -0.003368679 -0.009108511
000090 32 e6 32 bd fb 1b c2 3c e7 1a 0f 3d 87 ab 09 3d
       -0.043676563 0.023694983 0.034937765 0.033610847
0000a0 99 c6 0e bb 8c e0 11 3d 56 63 bd bb 6b ff 00 3c
       -0.0021785854 0.035614535 -0.005779664 0.007873396
0000b0 7b 9a cc 3c 02 fb 07 bc 33 d7 d0 bc 49 3a 66 3d
       0.024976006 -0.008299591 -0.02549324 0.05620793
0000c0 cb df 15 3c 85 a1 b2 bb 52 77 6f bc 66 00 18 3d
       0.009147595 -0.0054513835 -0.0146158505 0.037109755
0000d0 04 b0 22 bc 47 c9 30 3d ec 93 25 bd 33 10 3a bc
       -0.009929661 0.043160703 -0.040424272 -0.011356401
0000e0 ef 5b ba 3c 33 ff 7c bc fa 67 03 bd 5d e2 09 bd
       0.022748915 -0.015441704 -0.03208158 -0.033663142
0000f0 d0 07 63 bc 10 f7 fe 3c a9 ff 1d bd 7d 27 5a bc
       -0.013856843 0.031123668 -0.038573895 -0.013315079
000100 3c 28 11 3b 6b 45 4b 3d 82 af 02 bd 92 3a 57 bb
       0.0022149226 0.04962675 -0.03190566 -0.0032841307
000110 42 30 0b bd fd 9d 75 bc f5 f9 b6 bc ff 84 a3 3c
       -0.03398157 -0.014991281 -0.022335986 0.019960878
000120 c4 01 29 3d a5 1e 11 bd d5 3f d3 bc 31 65 b7 bc
       0.04126145 -0.035429616 -0.025787273 -0.022387119
000130 41 f1 4f b9 b0 fd 5b bb b7 17 45 bc f0 22 f6 3c
       -0.00019830932 -0.0033567958 -0.01202958 0.030045956
000140 57 5d d6 3c a9 71 02 3d 1b 0b 48 bd 54 34 1c bd
       0.026167555 0.031846676 -0.048838716 -0.03813584
000150 e2 51 59 bc 85 bd ae 3a 2d 6b 05 bd f3 f5 8b bc
       -0.013264151 0.0013331628 -0.032572914 -0.017085051
000160 bf fa 0d 3d fe 62 9e bc 9d 61 4d 3d 59 7d 6e 3c
       0.03466296 -0.019334313 0.05014192 0.014556252
000170 76 ad 79 bc f1 b7 0c 3c f3 8b 0d 3d 59 35 18 3d
       -0.01523911 0.008588777 0.034557294 0.03716025
000180 da 4c 62 bc b8 bb 0d 3d ec 83 aa bc 25 c4 c6 3a
       -0.013812268 0.03460285 -0.020814858 0.0015164657
000190 57 6c 96 3c bd f4 e5 3c bb 85 df bc bf ea 06 bd
       0.018362207 0.028070802 -0.027285447 -0.032938715
0001a0 e1 72 f0 39 3e 39 04 3c ee d6 00 3d 9d 01 78 bb
       0.0004586196 0.008070288 0.031454973 -0.0037842758
0001b0 68 ce 05 3c f3 8d 19 bc 92 2a 32 3d 25 40 1a bd
       0.008166887 -0.009372222 0.04349763 -0.03765883
0001c0 d0 ba b6 bc e2 d6 33 3c 5f 09 40 3d f1 a9 e6 bc
       -0.022305876 0.010976525 0.046883937 -0.028157206
0001d0 f4 b7 24 bd e6 ef e4 3b 83 a4 25 3d a9 cd 49 bb
       -0.040214494 0.006986606 0.040440094 -0.003079275
0001e0 02 f3 b7 bb 4c de 10 bd 4c c5 2b bd 14 d6 d0 3c
       -0.0056136856 -0.03536825 -0.041936204 0.025492705
0001f0 bd 9e ca bc ed 04 25 bc be b7 0d bd eb df 2a bd
       -0.024733895 -0.010071975 -0.03459906 -0.04171745
000200 f0 0d 56 bd 3e 1b 97 38 83 8a 01 3d 66 57 89 bc
       -0.052259386 7.205315e-05 0.031626236 -0.016765308
000210 27 2c cf bc 26 01 bc 3c 45 4e 17 3d 28 00 3d 3d
       -0.025289608 0.022949766 0.036939878 0.046142727
000220 b0 b7 c2 3c 72 46 f5 3c 9e a9 51 3d 5c 75 aa bc
       0.02376923 0.029940818 0.05118715 -0.020807914
000230 71 40 06 3c 26 91 63 3c a0 48 0d bc 33 a0 65 3c
       0.008194075 0.013889587 -0.008623272 0.014015245
000240 62 67 b4 3a 3b 29 b3 3c 53 23 ef 3b ff 0b 22 3c
       0.0013763721 0.021870246 0.007297912 0.009890555
000250 b8 13 db 3b a4 94 98 bb d6 1e c9 bc 93 a0 c8 3c
       0.0066857003 -0.004656391 -0.024550837 0.02449063
000260 f9 d6 f3 bc 5d 72 cc 3b f9 cb 0a 3d 9a 9a 23 bd
       -0.029765593 0.006239219 0.03388593 -0.03994236
000270 1a 22 e5 3c 9d 45 11 3d af 65 04 bc 06 fe 32 bd
       0.027970362 0.03546678 -0.008080884 -0.043699287
000280 6e d1 82 3b 6a d1 ff 3a 07 18 32 bc 5b 51 d4 3c
       0.003992251 0.0019517366 -0.010869986 0.0259177
000290 15 74 fe 3c e8 6b 75 bc b4 25 8d 3c 35 9b ef 3c
       0.031061212 -0.01497934 0.017229892 0.029248813
0002a0 12 d5 de 3c 16 40 11 3d c6 30 bb 3b a8 ae bd bc
       0.02720121 0.035461508 0.0057126014 -0.023154572
0002b0 0a 1c f0 bc d3 95 92 ba 79 f6 39 bd 10 a7 ac 3c
       -0.029310245 -0.0011183567 -0.04540107 0.021075755
0002c0 38 a1 c5 3a 34 dc b0 3a df 7d 2b bd 73 27 c9 3c
       0.0015077954 0.001349336 -0.041868087 0.024554944
0002d0 9b 8b 0e 3d 76 39 28 b8 21 2e a2 3c 31 52 bb 3c
       0.034801107 -4.0107836e-05 0.019797387 0.02286634
0002e0 16 b6 92 bb 33 27 ce 3c c9 66 b7 bc a8 18 49 3c
       -0.0044772727 0.025165176 -0.022387879 0.012273945
0002f0 5f 40 08 3d 1a b1 54 3c 0a ed 1f 3d e1 35 ba bc
       0.033264514 0.012981677 0.039044417 -0.02273077
000300 c7 8b 73 3c 20 17 aa bc e1 38 2b 3c fa 1c 13 3d
       0.0148648685 -0.02076298 0.010450573 0.035916306
000310 f0 5d 9c bc 45 f3 2c bd 78 4e af 3c 77 9e 1f 3b
       -0.019087762 -0.042224187 0.021399722 0.0024355927
000320 78 3b 15 bd c9 91 dc bc 99 d6 34 3d c4 d5 e6 bc
       -0.036433667 -0.026924985 0.04414997 -0.028178103
000330 dd 04 0f bd 1f 52 3d 3c a0 4f 1a 3d 1f 9b db 3c
       -0.034916747 0.011555224 0.037673593 0.026807366
000340 01 b0 db bc 4c 9e d5 bc fb 9d 76 3c 98 54 15 bc
       -0.026817324 -0.026076458 0.015052314 -0.009114407
000350 30 48 b5 3c 05 ea d7 ba ae 84 f1 3c 85 ce 01 bb
       0.022129148 -0.0016472941 0.029482212 -0.0019806933
000360 7e 3e 0c bd 4d 38 c4 3b 08 d5 54 bc af 8b b5 bc
       -0.034239285 0.005988157 -0.012990244 -0.022161333
000370 c6 1b e0 3c de b0 9d ba 14 82 84 bc 85 39 42 ba
       0.027356993 -0.001203086 -0.016175307 -0.0007409084
000380 c7 43 2c bd 07 64 8e bc 66 03 02 bd e1 09 7b 3c
       -0.042056825 -0.017381681 -0.031741522 0.0153221795
000390 0d b5 93 bc de 15 13 bc 54 dd dc 3c ac 3a df 3b
       -0.018030668 -0.0089773815 0.026961006 0.006812414
0003a0 bf a5 43 3c 24 c6 2e 3b b4 1e a5 3a 1b 59 de 3c
       0.011941372 0.0026668394 0.0012597651 0.027142098
0003b0 49 9e d6 3c c0 8c e8 3c e5 f4 eb 3c 47 4d b5 3b
       0.026198523 0.028387427 0.028803298 0.005532894
0003c0 5c 2d 01 bd b8 80 d4 3b 60 50 1e 3d d7 0f 61 3d
       -0.0315374 0.006485071 0.03865087 0.054946747
0003d0 d1 e1 1b bd 1c 2e e2 3b c1 ae a0 bc a5 5a 10 3d
       -0.038057152 0.0069024693 -0.01961458 0.035242695
0003e0 1b 27 ae 3c 1f b4 24 bc 0f dc 31 bd c6 9f 50 bc
       0.021258881 -0.01005271 -0.043422755 -0.012733405
0003f0 e0 3c d6 3c 52 e4 2c bd 85 57 b0 bc 1f a2 6c bb
       0.026152074 -0.04220993 -0.021526108 -0.0036107374

fc2.weight f4 [128, 256]
000000 af 18 93 bc 32 f0 61 bd 1d 7f d0 3c 38 25 3a bc
       -0.017956106 -0.05516071 0.025451237 -0.011361413
000010 54 cc 45 3c 7e 14 83 bd b4 23 38 3c ed 5a 08 3d
       0.012072641 -0.06400393 0.011238981 0.03328984
000020 c9 e0 5b bd 3f ed a5 3c 75 cf 90 3d 0d 27 2a bd
       -0.05368117 0.02025473 0.07070819 -0.041541148
000030 d3 ee 89 3b 7d f5 87 bc e8 5f 58 bd 54 1b 00 3d
       0.0042093783 -0.01659655 -0.05282584 0.031276062
000040 58 8c 26 bc 67 85 00 3d e9 9c 62 3d 35 de 3a bd
       -0.0101652965 0.031377222 0.055325422 -0.04562207
000050 20 e1 18 3d a1 1e d4 bc c2 d7 dd 3c 82 de 93 bc
       0.03732407 -0.025893511 0.02708042 -0.018050436
000060 fa e6 5d 3b 41 bf cd 3c 1b 82 cf 3b 61 c8 87 bd
       0.0033859597 0.025115611 0.0063326485 -0.06630016
000070 e8 3e 07 3d 7f 7c 05 bd 0c 77 69 3d df dc 98 3c
       0.033018976 -0.03258943 0.056998298 0.018660007
000080 c3 d3 99 bc 77 36 ea bc 6f 04 58 3b a4 06 42 bd
       -0.018777734 -0.028590424 0.0032961627 -0.047369614
000090 31 81 0e 3d 60 e4 68 3c ce cd 09 bd 30 70 6a 3d
       0.034791175 0.014214605 -0.033643536 0.057235897
0000a0 06 c9 06 3b 35 83 08 3d b1 ff 40 3b f4 76 ea bc
       0.0020566597 0.033328254 0.002944928 -0.028621174
0000b0 5b ef 3b bd fd 95 af bc 22 49 4e bc 51 9e 1f bb
       -0.045882564 -0.021433825 -0.012590678 -0.0024355839
0000c0 ef e7 56 bd bd 55 50 3d 78 ae 82 bc 2b bc 19 bd
       -0.052467283 0.050863016 -0.015952334 -0.037532967
0000d0 f6 b6 2d 3c 71 85 04 3c eb db 6e bd 4d f8 bb bd
       0.010602703 0.008088456 -0.0583152 -0.09178219
0000e0 4e e2 9c b9 c3 38 55 3d 58 67 1b 3b d0 18 80 3d
       -0.0002992325 0.052056085 0.002371272 0.062547326
0000f0 d2 5b 61 3d 07 95 3e 3d 79 b7 3e 3d 35 75 06 3c
       0.055019207 0.046528842 0.046561692 0.008206655
000100 ed 41 85 3d ab 2d 89 bd 5f 88 79 3d cf 1f f8 ba
       0.06506715 -0.066981636 0.06092107 -0.0018930378
000110 09 1d ed bc d5 dd cd 3b 14 99 86 3b 80 19 36 bc
       -0.02894451 0.006282548 0.004107604 -0.011114478
000120 bb 39 6a bd 28 3a 34 3d 46 0b 2f 3c 75 e2 dd bc
       -0.057183962 0.044000775 0.01068384 -0.027085522
000130 c7 69 3d 3d a9 c5 b1 3c e1 4f ca 3d 5e 69 4e 3d
       0.046243455 0.021700697 0.09878517 0.050393455
000140 c6 22 18 3d 12 51 2e 3d ec b4 3c bd 76 40 2d bd
       0.037142538 0.042557783 -0.046070978 -0.042297803
000150 98 02 be bc 69 9d 76 3c 8a d2 4d 3d d9 d6 16 bc
       -0.023194596 0.015052178 0.050249614 -0.009206497
000160 41 0e be 3c 48 d8 db bb 2b 06 e2 bd 3f 5d 52 bd
       0.023200156 -0.0067091323 -0.11036333 -0.051358458
000170 62 9f 66 bd 86 75 fd 3c 2a 33 5e 3d f9 9a 4a bd
       -0.056304343 0.030939829 0.054248013 -0.0494642
000180 a4 c6 6d bc 47 d3 f1 bc a9 ef 69 3b ab 85 49 3d
       -0.014512692 -0.02951969 0.0035695827 0.04919974
000190 20 09 28 bd 12 0b 6b 3d 75 6f 91 bc 42 d5 e6 bc
       -0.041024327 0.057383604 -0.017753342 -0.028177861
0001a0 6d 44 e6 3c 33 cc 14 3a 5c d0 f0 bc 44 0b 8d bc
       0.0281088 0.000567618 -0.029396228 -0.017217286
0001b0 bd 7d 55 3d 01 7b 67 bd f7 e6 fd bc 8a 98 47 bd
       0.052121866 -0.05651379 -0.030993922 -0.048729457
0001c0 42 74 4d bb 85 8d f8 bc 7e 29 4a bc 6d eb 86 3c
       -0.0031349813 -0.03034092 -0.012338994 0.016469682
0001d0 1e 0a b4 bc 3f f8 ce bc 99 e9 2f 3d 88 8b 1c 3d
       -0.02197748 -0.025264857 0.042947385 0.038219005
0001e0 43 38 bd bc b5 12 d9 bc df 79 4e bd 17 69 62 bc
       -0.023098117 -0.026498178 -0.050409194 -0.013819001
0001f0 d3 27 d6 3c ae 07 ae bd 2e b2 0f 3d 2b 78 47 bd
       0.026142037 -0.084975585 0.035082035 -0.048698585
000200 f8 0a 0f 3d e4 e5 d6 3b cd 19 05 bd 8f 0f 1b 3c
       0.03492257 0.006558167 -0.03249531 0.009464159
000210 f7 7a 62 3d 1b 81 00 bd 97 08 22 3d 2c 71 a3 bd
       0.05529305 -0.031373125 0.039558973 -0.0798057
000220 3e 6e 26 bc 2f 88 28 bd ca 80 49 ba fe 7b 60 bd
       -0.01015812 -0.0411455 -0.00076867326 -0.05480575
000230 cb 5f 78 bd 88 b8 4a bd 67 2f 71 bd 0b 25 41 3d
       -0.06063823 -0.04949239 -0.058883097 0.047154468
000240 13 82 12 3d f9 e0 6f bd b1 de 6a bc 88 0d 0a bd
       0.03576858 -0.05856416 -0.01433532 -0.03370431
000250 9b 86 14 3d 0d b5 5f 3d 63 e9 16 3d f5 b7 1b 3d
       0.036261182 0.054616023 0.03684367 0.038017232
000260 97 c3 1d 3d 16 50 06 3d 4f 16 28 bc 84 81 97 3b
       0.038516607 0.03279122 -0.010259225 0.0046235938
000270 ee de e1 3c 37 0f 21 bc 85 e0 8c bd a4 de c6 bc
       0.027572121 -0.009830288 -0.06878761 -0.024276085
000280 a4 18 8b 3d f8 60 40 bd c7 e6 b6 3c 55 1b d0 bc
       0.06791809 -0.046967477 0.02232684 -0.025403658
000290 1f 27 ee 3c ac ad be 3c 32 e0 ac bc 9a ff 61 3c
       0.029071389 0.023276173 -0.021102998 0.01379385
0002a0 1d 42 bd bc 5d ab 1a bd 09 6a 4d 3c 4f fe bf bc
       -0.023102814 -0.03776108 0.012537488 -0.023436693
0002b0 0b 71 ec ba f2 90 15 bd 66 4c be 3c 6e 8d 76 bc
       -0.001803906 -0.036515184 0.023229789 -0.015048368
0002c0 57 40 de 3c b6 47 31 3d 5b 12 fc ba 47 22 88 3d
       0.027130289 0.04328128 -0.0019231545 0.06647163
0002d0 50 80 1e bd 57 8a 8d 3a 5d a6 64 bd 86 cb 64 3d
       -0.038696587 0.0010798675 -0.05582272 0.055858158
0002e0 5a cb 4b bd 46 0c 66 3d a3 13 98 3c 8a 44 0c 3d
       -0.049754478 0.05616405 0.018564051 0.03424505
0002f0 4e 10 b4 3c f3 bc 12 bd 52 48 a5 3c a4 67 32 bd
       0.02198043 -0.035824727 0.020176087 -0.04355587
000300 bd 31 44 3c 95 4e 19 bd 86 65 76 bd 60 34 06 3d
       0.011974749 -0.037428457 -0.060155414 0.032764792
000310 ef c2 53 bd b1 b6 37 3d 04 93 0d bd a0 ed 61 bd
       -0.051699575 0.044851962 -0.034564033 -0.055158257
000320 b3 c6 17 3b 94 17 64 3c 50 1b 79 3d fc d3 8c bb
       0.0023159205 0.013921637 0.060817063 -0.0042977314
000330 1f 54 a0 bc f5 55 20 3d b6 97 7a 3d 57 8e 65 bc
       -0.019571362 0.039144475 0.06117984 -0.014010987
000340 cc 02 c0 3b 34 bb b8 3c 0c 06 c4 bd 85 25 19 bd
       0.0058597084 0.022550203 -0.09571466 -0.037389297
000350 c9 24 0c 3d bb 99 fc bc 17 a4 7a bd 81 00 8d bc
       0.03421477 -0.030835023 -0.061191645 -0.017212154
000360 72 2b 79 3d b2 c4 11 3d fd 1b 16 bd 05 f0 5b 3c
       0.06083245 0.035587974 -0.036647785 0.013423924
000370 92 22 f3 bc 34 6d fe bb 1c 18 31 bd 51 9e 11 bd
       -0.02967957 -0.007764483 -0.043235883 -0.035551373
000380 64 fa 3d bd 93 fe 1c bd 4f bf 16 bc 6d 96 e2 3c
       -0.04638137 -0.03832872 -0.009200885 0.02765962
000390 a1 a3 0b bc 93 10 7e bd 09 49 c8 bc 9f 07 bc 3b
       -0.008522899 -0.062027525 -0.024448888 0.005738213
0003a0 d3 57 67 bc af 88 77 3b 0d 4b 18 3c 59 dc 0d 3d
       -0.01412006 0.0037770679 0.009295237 0.034633968
0003b0 0e 22 ae 3d a1 16 44 bd 8c 93 f8 bb 7d c5 39 3d
       0.08502589 -0.047873143 -0.0075859483 0.045354355
0003c0 6a 30 f1 bc ca f1 88 bc 43 16 64 3d 86 9a f8 3c
       -0.029442031 -0.016716857 0.055685293 0.03034712
0003d0 56 01 a9 bc 8d 46 3c bc 73 59 64 3c c0 58 7c 3c
       -0.02063052 -0.01149143 0.013937342 0.015402019
0003e0 47 7f 67 ba 50 ec 8d bc ae 98 a4 bc b1 b7 7c 3d
       -0.00088309165 -0.017324597 -0.020092335 0.06169862
0003f0 e8 d1 98 3d 7c d6 f0 bb 08 61 10 3d a3 7b 55 3d
       0.074619114 -0.0073497873 0.035248786 0.052119862

fc2.bias f4 [128]
000000 97 86 62 bd 02 90 17 bd 65 40 24 bd e3 8c 18 bd
       -0.055304136 -0.03700257 -0.040100474 -0.037243735
000010 26 d3 5f 3d 64 5e 98 bc 96 1a 58 3d b5 f0 0a bd
       0.054644726 -0.018599696 0.05275973 -0.033920962
000020 29 4c c0 3c f7 8c 6e bd e5 6a 3c bd 69 ff fb bc
       0.023473816 -0.058239903 -0.04600038 -0.030761437
000030 1d 8d ad 3c 25 3c f5 3d bd 70 73 bd 32 96 10 3d
       0.021185452 0.11974362 -0.059433687 0.035299487
000040 93 76 e2 bc 9d c5 db bc d5 e2 f6 bc 64 38 d1 bc
       -0.027644431 -0.026827628 -0.030137459 -0.025539584
000050 19 83 81 3d 3f 3f fb 3c c6 61 6f bc 4f 5e 4d 3d
       0.06323833 0.030669807 -0.014610713 0.050138768
000060 46 3d 88 bd 95 b1 bb bd d8 8e 05 3d 54 a9 d3 3a
       -0.06652312 -0.091647305 0.03260693 0.0016148486
000070 98 ea ca 3c a3 ef ec 3c 60 a6 04 3d d7 34 aa 3d
       0.024770066 0.028922861 0.03238523 0.0831086
000080 81 f3 16 bd b1 68 8b bd 36 74 6e bd cc f7 62 3d
       -0.036853317 -0.06807078 -0.058216296 0.0554121
000090 76 f9 97 ba 83 b5 41 3d c6 bb 79 bd 57 0c 8e 3b
       -0.0011594731 0.047292244 -0.06097009 0.004334967
0000a0 97 47 ad bc 43 8b 17 bc a4 bd a3 bc 6a 5e 24 3d
       -0.0211523 -0.009249511 -0.019987889 0.040129103
0000b0 b0 ef bf bc f0 92 07 3d a0 cd 7b 3a b7 a5 66 3d
       -0.023429722 0.033099115 0.00096055306 0.05631038
0000c0 3d 31 44 3d 72 8a 1b 3c 92 0e 10 3c ac 47 52 bb
       0.04789852 0.009493457 0.008792536 -0.0032086177
0000d0 55 23 a9 3d 29 5f 66 3d 9d 77 16 bc 3d 35 bc bc
       0.08258692 0.056243096 -0.0091837915 -0.022974605
0000e0 69 24 db bc 5f 7e 20 bd 1a a4 11 bd b6 e2 63 bc
       -0.02675076 -0.039183017 -0.03555689 -0.013909033
0000f0 a1 65 47 bc 97 cf 75 bd be f1 13 bd 39 1d 7d bd
       -0.012170226 -0.060012426 -0.036119215 -0.061795447
000100 ba 68 02 3c 1a d4 4f bc d9 94 42 3c 2a 86 6b bd
       0.007959539 -0.012684846 0.011876308 -0.057500996
000110 71 7e 51 3d 2e 49 0f bd 45 cc fd 3c 4a 27 09 3d
       0.051145975 -0.0349819 0.030981192 0.033484735
000120 d6 23 53 bd 2d 06 94 3a 26 c7 10 3d 72 65 08 bd
       -0.051547848 0.0011293344 0.035346173 -0.03329987
000130 a6 87 31 bd 46 a4 e2 3c 3f f6 87 3d e3 ac 62 3d
       -0.043342255 0.027666222 0.066387646 0.05534066
000140 d0 ec 50 3d a7 e1 1e bd 71 e2 83 3a 08 8a 88 3d
       0.051007092 -0.038789418 0.0010061992 0.06666952
000150 7a 5b 29 bc 29 69 39 bd 54 ed a4 3d 1f 13 9d 3d
       -0.010336751 -0.045266304 0.08053079 0.07669663
000160 92 7b 11 3d 07 ce 11 bd f2 c3 9a bd 0a 1d a1 3d
       0.035518236 -0.035596874 -0.07556905 0.07866867
000170 02 96 a7 3c 0d 0c b5 bc 49 9c 1f bd d1 76 ec 3c
       0.020457271 -0.022100473 -0.038967405 0.02886525
000180 64 a9 65 bb c1 5c 00 bb eb e2 30 3c 46 63 c9 bc
       -0.0035043592 -0.0019586536 0.010796289 -0.02458347
000190 0c 17 46 3d e5 89 33 3d 20 da f2 3b a0 ec 07 bc
       0.048361823 0.04383268 0.0074112564 -0.008296162
0001a0 b5 c7 30 bc 20 ec 0c bd 85 ad ce bb ff eb 8a 3a
       -0.010789801 -0.034404874 -0.0063073062 0.0010598897
0001b0 e7 f8 a2 3d b8 6b a5 3d a5 4a 78 3d e3 e6 6c 3d
       0.079576306 0.08077186 0.06061806 0.05783738
0001c0 78 1d 69 bd 07 8a a6 3a 8c 08 d9 3c 88 39 85 3c
       -0.05691287 0.001270593 0.026493333 0.016262785
0001d0 d1 33 3d 3c 48 b3 df 3b 36 55 00 bd 53 9c 2b bd
       0.0115479985 0.006826792 -0.031331263 -0.04189713
0001e0 70 b5 92 3d 4c 82 7f 3d 0f 7b 61 3c cf 9d e6 3b
       0.07163513 0.06238012 0.01376225 0.007037855
0001f0 d9 49 eb bc 29 7b 17 bc 78 37 81 bd 81 0f 72 bd
       -0.028721737 -0.009245672 -0.06309408 -0.059096817

fc3.weight f4 [44, 128]
000000 11 cd 83 3d d5 36 67 bb 83 58 4b 3c 0c 1b 0a 3e
       0.06435598 -0.0035280485 0.01241124 0.1348688
000010 5c 13 55 bd 1f 9e 9b 3d 8f 30 60 bb 86 81 ba 3d
       -0.052020416 0.075985186 -0.003420863 0.09106736
000020 f2 27 3b bd 18 5c 49 bd 59 f5 2e bc cc 24 77 3c
       -0.04569239 -0.049160093 -0.010678613 0.015084457
000030 44 3b a9 bd 96 57 04 be 3f 03 02 3e cf dd c4 3d
       -0.08263257 -0.12924036 0.12696551 0.09612619
000040 77 8f 8c bd 49 c4 92 3d 34 cf 56 bd 38 d8 e6 3c
       -0.06863301 0.07166345 -0.052443698 0.028179273
000050 d1 09 9f bd 11 1e df bd 0a 4b 97 bd fc 80 1e 3e
       -0.07765544 -0.108944066 -0.073873594 0.15478891
000060 78 ab 60 bb 46 a6 57 bd 32 96 10 be 9b fb 3a be
       -0.003428189 -0.052648805 -0.14119795 -0.18260042
000070 b2 b1 ec bc e2 9f d7 bd 31 b0 db bc b0 87 8a 3d
       -0.028893325 -0.10528542 -0.026817413 0.067641616
000080 8c 03 04 3d f1 3a 8e bd 4c ee 2a 3d d2 bd 5e 3e
       0.032229945 -0.06944836 0.041731164 0.21752098
000090 5b 5f 1f be 12 22 0b 3e da fe 26 3e d1 b9 be 3c
       -0.15563719 0.13587216 0.16308156 0.023281964
0000a0 14 8d 6c 3d f6 a7 4a 3d a4 d0 a2 3b bd 7a 44 3c
       0.05775173 0.049476586 0.0049687196 0.011992154
0000b0 f1 20 ad bd c8 ce 97 bd ee b6 8e 3d ee bd 95 3d
       -0.08453549 -0.07412487 0.06968485 0.07311617
0000c0 72 28 89 3a 40 0b 12 be 76 4f 8d bd e8 07 5f bd
       0.0010464324 -0.14262104 -0.068999216 -0.0544509
0000d0 58 17 4e 3e 5e 18 5e be ad 4c 9b 3d c4 51 a3 bd
       0.20126092 -0.21688983 0.07582984 -0.0797458
0000e0 2f 1a 1b be 1d 03 b7 3d 2a ab fe bd d5 82 20 be
       -0.15146707 0.08936141 -0.12434991 -0.15674908
0000f0 fd ec fa 3d 77 4f b6 bc a8 e2 95 bd a7 f5 b1 3d
       0.12252233 -0.022254689 -0.07318622 0.086894326
000100 35 a8 ac 3d 19 ee 22 3e a0 cf 93 3d e4 98 4c 3d
       0.084305204 0.1591114 0.07217336 0.049950495
000110 f7 e1 33 be 87 4f 79 3d ea 9f 14 3d 69 2b 51 bd
       -0.17566667 0.06086686 0.03628532 -0.05106679
000120 6b 19 af bd 1f 3b d0 bc a8 ef df bc de 15 0e bd
       -0.0854977 -0.025418816 -0.027335957 -0.034688823
000130 56 7c 2c 3d 44 e9 ae 3d 8a 42 49 3e 19 6c 62 bd
       0.042110763 0.08540586 0.19654289 -0.05527887
000140 28 12 97 bd 2e 97 8a bd b4 3f a1 bd 34 93 05 be
       -0.0737651 -0.067671165 -0.078734785 -0.13044435
000150 7c de aa 3d b5 21 4e 3e 65 15 93 3d d8 15 a9 3d
       0.08343217 0.20130046 0.07181815 0.082561195
000160 a4 40 06 3d 02 98 d1 3c 60 78 d5 bb 4d 7c 9b bc
       0.03277649 0.025585178 -0.006514594 -0.01898017
000170 1f 13 7f 3b c1 51 c1 bd 4a b5 9a 3d b9 a9 5c bd
       0.003892131 -0.094394214 0.075541094 -0.053872798
000180 c9 49 8c 3d 93 33 6b 3d 3e 74 1c 3e ea 19 40 bd
       0.06850011 0.057422232 0.15278718 -0.046899714
000190 e4 6a 86 bd 10 c6 c1 3d c2 63 37 3d 80 3b ad 3c
       -0.065633565 0.094616055 0.04477287 0.021146536
0001a0 b0 47 e5 3d 4e 4e 0c be ec 9f f8 bb 6e 7b 63 bd
       0.11195314 -0.13701746 -0.0075874235 -0.055537634
0001b0 7f d2 6a bb 30 c4 0d 3e 91 14 95 3d 58 5e 9a 3d
       -0.0035831032 0.13844371 0.07279313 0.07537526
0001c0 05 e8 45 bd 98 6a 81 3e 32 0c 20 3d d1 bd 92 bc
       -0.048316974 0.25276637 0.03907413 -0.017912777
0001d0 89 d8 ed 3d f4 33 1a 3d 80 fb 20 3e eb aa e9 3a
       0.116135664 0.037647203 0.1572094 0.0017827427
0001e0 90 7a 02 be a3 22 13 bc 22 bc 17 3e 1b e4 e1 bc
       -0.12742066 -0.008980426 0.1481786 -0.02757459
0001f0 dd fb 53 bd fc fb 08 3c 7c 72 7d 3e d6 c1 63 bd
       -0.051753867 0.008360859 0.24750704 -0.05560478
000200 0a d2 82 3d 8d 27 9e bd e4 b5 fe 3c 0a d0 ea 3d
       0.06387718 -0.077223875 0.031092592 0.114654616
000210 24 26 9c 3d f6 87 59 3d 26 9d b3 bd 74 03 9c bc
       0.07624462 0.053108178 -0.08770208 -0.019044615
000220 44 1a 8c bc 5f 9e 89 bc 7d b1 c4 ba 0d 4c 86 bc
       -0.017102368 -0.01679915 -0.0015006509 -0.016393686
000230 fa 3e 21 3e 97 ac 2b 3d 73 c9 b4 3d 0f b6 37 3d
       0.1574668 0.04191264 0.08827486 0.04485136
000240 fd e4 5a 3d 9b fb b2 bd 15 ea 20 3d ec 73 19 3d
       0.053441036 -0.08739396 0.039285738 0.037464067
000250 d0 3a 68 bd 64 cb 1d 3d ea 1e bc bb fc cf 35 3e
       -0.056696713 0.038524047 -0.00574099 0.17755121
000260 bc 28 50 bd 72 e0 66 bd f1 22 fc 3d df 45 c7 3d
       -0.050820097 -0.05636639 0.12311352 0.09730124
000270 30 95 97 bd 65 2e 9a bd 40 30 b3 3c 0a 7a 53 3d
       -0.07401502 -0.0752838 0.021873593 0.051630057
000280 cf 10 03 bd a1 13 a9 bc 43 05 ac 3c c4 a7 89 3d
       -0.03199845 -0.020639243 0.020998603 0.06721452
000290 f7 22 72 3c 15 66 b8 3c e7 ef 34 bb 41 8d 8b 3d
       0.014778844 0.022509614 -0.0027608813 0.068140514
0002a0 28 6a a5 3b 08 92 b5 bc c6 74 7e 3c 60 16 98 3c
       0.005048055 -0.02216436 0.015530771 0.018565357
0002b0 81 3f 1c 3d 23 d1 d3 bc 6f 86 34 bd 2c 60 13 3e
       0.0381465 -0.02585656 -0.04407352 0.14392155
0002c0 cd 91 fd 3c 99 c3 8e 3c 9c c8 a4 bd 97 0c 31 3c
       0.030953312 0.017427253 -0.08046076 0.010806224
0002d0 6b 85 02 3e a9 b5 37 be 78 c6 ad bd ae e3 a7 bd
       0.12746207 -0.17940392 -0.084851205 -0.08197723
0002e0 c2 74 0a 3c a5 fd 49 3d b7 4c d7 3d 9b 24 cb bd
       0.008450689 0.04931416 0.10512679 -0.09919091
0002f0 da 5f e5 3d f0 d9 1d bc 50 21 df bd eb a8 46 3d
       0.11199923 -0.00963448 -0.10895026 0.048500936
000300 62 70 03 3e da 45 a2 bd 87 cb 6b bd a7 68 7b 3d
       0.1283584 -0.079234794 -0.057567146 0.0613791
000310 f9 d5 d4 3d fa c2 ba 3c ec fd 46 3c 06 68 84 3d
       0.103923745 0.02279805 0.012145501 0.064651534
000320 da 7d 79 3d 26 d6 73 3c 35 e2 ca bc 10 ea 88 bc
       0.060911037 0.0148826 -0.024766067 -0.016713172
000330 27 1f 88 3d 17 86 c7 3c 8e 85 5c 3b a7 5d 90 bd
       0.06646567 0.024355931 0.003364894 -0.07049113
000340 1d 80 ab 3d f0 3c ca bc 08 0d c8 3d be 6d 71 3d
       0.08374045 -0.02468726 0.097681105 0.05894255
000350 ce 9d 1a bd 76 ce a3 3a b7 0e af bc 47 b1 e6 3b
       -0.03774815 0.0012497443 -0.021369321 0.007040176
000360 93 fd 63 3d 85 ab 0e 3e b2 15 a5 3d 3f 3d 28 3c
       0.05566175 0.13932617 0.08060779 0.010268508
000370 2e ad 88 3c 28 23 25 bd 4b 72 9f 3d d5 34 47 3c
       0.016684141 -0.04031673 0.077854715 0.012158592
000380 9a f2 8e bd a1 f3 f3 bc 0a 9c a9 3d c1 eb 4b bd
       -0.06979866 -0.029779257 0.08281715 -0.04978538
000390 a3 80 80 3d bc dd b2 bb 65 3d 8f 3d bd cb 85 bd
       0.062745355 -0.0054585617 0.06994132 -0.065330006
0003a0 e1 ec 77 bb 98 35 0e 3d 81 57 b4 3d fe 8c 6d bc
       -0.00378304 0.03471908 0.088057525 -0.014498947
0003b0 f5 73 31 bc 46 a2 24 bd 4a eb 54 3e ec 38 44 3d
       -0.010830869 -0.04019382 0.2079288 0.047905847
0003c0 ef d6 9a bc a4 6d 5e bd 07 14 90 3d 09 11 72 bd
       -0.018901316 -0.05430378 0.0703507 -0.059098277
0003d0 07 56 cc 3d 52 52 08 3e c3 2e 4f 3d 24 b1 66 3d
       0.09977346 0.13312653 0.050581705 0.05632128
0003e0 2e 29 0b bd 7e 0f 8c bd 4f 25 01 3d e8 58 c7 bd
       -0.03397482 -0.068388924 0.03152972 -0.097337544
0003f0 b8 e1 d1 bd de b8 38 3d c3 8f 1d 3e 1d ca 87 bc
       -0.102481306 0.045098178 0.15386872 -0.016575867

fc3.bias f4 [44]
000000 c8 ae f8 3d 9b 83 d3 3d 70 22 85 3e 99 fb 20 3e
       0.12142712 0.10327836 0.26002836 0.15720977
000010 a6 26 b3 3c dc 96 85 bd 07 48 7f bd 72 69 9a bd
       0.021869015 -0.06522915 -0.06232455 -0.07539643
000020 91 25 14 3d dd e5 cf bd 47 b9 c3 bc 7b 2e 93 bd
       0.03616864 -0.10151265 -0.023892058 -0.071866
000030 af 36 a7 bd 41 16 b7 be 8f 28 83 bc ae 3d bf 3c
       -0.08164727 -0.35759166 -0.01601055 0.02334484
000040 aa 21 a8 3d 5e 31 7f bc 75 d1 22 3d da 18 08 3e
       0.08209546 -0.015575735 0.039750535 0.1329073
000050 c7 a8 1e 3e 13 51 b8 3d 6a 10 23 bd 89 31 36 bd
       0.15494071 0.08999839 -0.039810576 -0.044480834
000060 01 f7 70 bd 4f 71 20 3e f6 90 5c bd 5e ff f9 bd
       -0.05882931 0.15668224 -0.053849183 -0.122069106
000070 e8 1f 15 bd 68 b0 01 bd ad 95 ba 3c 90 1f 51 be
       -0.03640738 -0.031662375 0.02277645 -0.20422196
000080 ac d0 95 bd cb 30 29 3d bc c2 3e 3d 83 48 d7 3d
       -0.073151916 0.0413063 0.046572432 0.105118774
000090 81 2d d5 3c f2 78 1a bc b5 e0 d2 bc 45 ae 11 3d
       0.026022675 -0.00942825 -0.025741914 0.035566587
0000a0 c9 01 36 be 9c 52 4d be a6 7e 9a 3c 9a 30 31 3d
       -0.17774118 -0.20051044 0.018859219 0.04325924
